models/lstm_model.onnx (onnx, 130121 bytes, 14 tensors)

sequential/dense_1/MatMul/ReadVariableOp:0 f4 [32, 7]
000000 a8 af 63 3e ee a2 0b 3e fe bf cd bd 24 7d 80 bd
       0.22234976 0.13636371 -0.10046385 -0.06273869
000010 c8 13 60 bd 54 dd 62 be db fd bf be b7 49 98 be
       -0.054706365 -0.22154742 -0.37498364 -0.2974374
000020 e6 8e 3e 3e 4a 3d fe ba 60 59 04 bc dd ec 84 3d
       0.18609199 -0.0019396928 -0.008077949 0.064904906
000030 ca 84 f3 be 37 b3 29 be 5f 82 87 be 4e e2 6b be
       -0.47562248 -0.16572271 -0.26466653 -0.23035547
000040 53 df 67 be cf a7 76 be 9c be 19 be 05 ec 49 be
       -0.22643785 -0.24087451 -0.15014118 -0.1971894
000050 ed 37 99 3e 44 48 3a be de d3 c5 be 63 51 9e 3d
       0.2992548 -0.1819163 -0.38638204 0.07730367
000060 13 ab d4 be db e0 a9 3e 8f 6f a1 3d 49 58 bf 3e
       -0.4153677 0.33179364 0.07882606 0.37372044
000070 0f 6d d2 be 3f f8 98 bd 20 82 b7 be 87 65 bb 39
       -0.4109883 -0.07469224 -0.35841465 0.00035743063
000080 21 6d 7e be f7 69 da bd 90 c0 35 3e e5 57 b6 3e
       -0.24846317 -0.106647424 0.17749238 0.35613933
000090 56 1b ee 3d 65 d3 c9 3e d1 cb 82 be 20 0c 09 be
       0.11626308 0.39419094 -0.25546125 -0.13383532
0000a0 4d 79 86 3d 52 ae a2 be 49 a7 92 3d 68 02 eb be
       0.06566105 -0.3177362 0.07160813 -0.45900273
0000b0 94 02 9e be 40 eb 1f 3e 51 de c9 3e 2b 0a 8e be
       -0.30861342 0.15617085 0.39427426 -0.27742133
0000c0 50 01 d3 bd 03 74 b2 3e b6 92 e0 bd 2a 80 ba 3e
       -0.10302985 0.34854135 -0.10965483 0.36425906
0000d0 9d 07 bd be 3d 5c 37 be b1 e0 ed be 2b 23 76 be
       -0.3691987 -0.1790628 -0.46460488 -0.24036853
0000e0 e0 92 86 bd a6 03 0a 3d 5e 7e d3 be 75 cb a1 be
       -0.06570983 0.033694886 -0.41307348 -0.31600538
0000f0 46 3c 1a 3e 44 27 9e be 10 02 a0 3e ba 47 ec 3d
       0.15062055 -0.30889332 0.31251574 0.11537118
000100 d0 6c 0d be 54 a0 5d be 77 18 13 be ce f4 0f be
       -0.1381104 -0.21643192 -0.14364801 -0.1405823
000110 4b c3 bc be 69 68 2f be 4a 7e c8 3b 8c 97 c6 3e
       -0.36867747 -0.17129673 0.0061185705 0.38787496
000120 ae a8 8b 3e b9 b1 37 be 69 45 51 be 46 3d 97 3e
       0.2727713 -0.1793889 -0.20436634 0.29538935
000130 4c 9d ae be e7 ab fa be 29 c3 b6 3e a6 c8 c6 be
       -0.34104383 -0.48959276 0.3569577 -0.38824958
000140 74 fa bc 3e 12 80 00 bd cb 18 ec 3e ef 45 3c 3d
       0.3690983 -0.031372137 0.46112666 0.04596513
000150 4d 05 37 be b9 a9 dd be e0 e0 20 be d9 89 ca 3e
       -0.17873116 -0.4329355 -0.15710783 0.39558294
000160 f8 d4 3e be 5f 9b 93 be f8 2a 42 be 41 69 b4 be
       -0.18635929 -0.28829476 -0.18961704 -0.35236552
000170 43 61 6d 3e 93 14 e8 be 26 f2 b0 be 1c 9d c6 be
       0.23181634 -0.45328197 -0.34559745 -0.3879174
000180 c8 a8 17 be e2 15 66 3e 3a a6 fa 3d 5c a1 79 3e
       -0.14810479 0.22469285 0.122387365 0.2437796
000190 74 00 8d 3e 14 6b 4f 3e f7 6f 8c 3e 66 db 3b 3e
       0.27539408 0.20255691 0.27429172 0.18345413
0001a0 28 54 a7 3e 85 f8 89 3e 17 9f 30 3e 17 a6 fc bd
       0.32681394 0.26947418 0.17248188 -0.123363666
0001b0 96 16 d7 be 2d c0 e9 be ae ae 68 3d c5 ad ac be
       -0.4200942 -0.4565443 0.056807213 -0.33726326
0001c0 89 6f f3 bd 28 a9 26 be 3e d0 8b be ba 54 cf 3e
       -0.11886508 -0.16275465 -0.27307314 0.4049433
0001d0 c5 ea 92 bb 1f cb df bd 64 07 c8 be 1c 20 0f be
       -0.004483553 -0.10927414 -0.3906814 -0.13977093
0001e0 6f 00 b3 3d d0 2c 23 bf 1b 22 cc 3a 4d 04 5a bc
       0.08740317 -0.63740253 0.0015574129 -0.013306689
0001f0 0c 6b bf 3e 14 b0 14 3e 77 45 95 3e 27 d1 09 3d
       0.37386358 0.14520293 0.2915456 0.03364673
000200 f4 9a 3b 3b c5 ec b9 3e 4d a5 e4 bd b8 ef 96 3c
       0.0028626295 0.36313453 -0.11164341 0.018424854
000210 fa 84 b6 3e 72 d0 36 3e 40 06 95 3e d1 48 96 3e
       0.35648328 0.17852953 0.2910633 0.2935243
000220 34 d4 e5 be bf 35 8c bd 3b 66 43 be d5 76 98 be
       -0.4488846 -0.06846189 -0.19081967 -0.29778162
000230 9d 81 a6 bc b2 92 b7 be 95 9b 49 3e 69 94 77 bc
       -0.020325476 -0.35854107 0.19688256 -0.015111067
000240 31 87 00 3e a5 b2 53 3c 97 ac 81 be 62 05 3f 3c
       0.12551571 0.01292101 -0.25326988 0.011658998
000250 50 1b 15 3d 5f 81 2b be ca 3e 34 be 87 ae 34 be
       0.036403 -0.1674857 -0.17602077 -0.17644702
000260 cf eb f8 bd 6c d8 95 3e ec f7 1d 3e df 50 9c be
       -0.12154352 0.2926668 0.15426606 -0.3053045
000270 c1 0a 9c 3e 4a 93 1c be f2 12 3b be bf b5 a0 3e
       0.30476955 -0.15290561 -0.18268946 0.3138866
000280 4e f8 c7 3e 4e 6e 71 be 73 05 37 3d 88 7f 3d be
       0.3905663 -0.23577234 0.04468293 -0.1850568
000290 46 96 13 bf 25 79 a9 be 5a e9 67 3e a8 f3 f1 3c
       -0.57651174 -0.33100238 0.2264761 0.02953513
0002a0 df 6e 5f bd 45 8b 84 be f0 39 92 be 9d 67 89 be
       -0.054549094 -0.25887504 -0.28559828 -0.26836863
0002b0 7d 42 32 3e 95 bc 96 3e dd 19 f6 3d e4 2d fa bc
       0.17408176 0.29440752 0.12016652 -0.03053946
0002c0 00 4f 66 be 95 f0 80 3d d2 6b 7b 3e f6 3c 32 be
       -0.22491074 0.062958874 0.24552849 -0.17406067
0002d0 17 2d b7 3d 91 eb 94 3e bc d8 b6 3d d0 98 98 be
       0.08944147 0.29085973 0.089280576 -0.29804087
0002e0 ed b7 1a be 80 08 25 be bc 6f cd be 6e b4 a0 be
       -0.15109225 -0.16116524 -0.4012431 -0.31387657
0002f0 bf e1 1c 3e 17 79 5a be 87 d4 78 be d9 73 fe bd
       0.1532049 -0.21335255 -0.24299823 -0.1242444
000300 c7 77 a9 3d a6 14 cc 3e 06 2f b5 be a9 ab f1 bd
       0.08274799 0.39859504 -0.3538744 -0.1180032
000310 0e e0 1f 3e 7c 6b 82 3e 8b 6b ae bd d0 19 9e bd
       0.15612814 0.2547263 -0.08516606 -0.07719767
000320 75 de 7e 3e 71 57 2c be a4 4b 94 be 1e 40 bb be
       0.24889548 -0.16830231 -0.2896396 -0.36572355
000330 97 0c 1c be 82 d8 26 bd 15 f3 d7 be af 98 8f 3e
       -0.15239178 -0.04073382 -0.42177644 0.28046176
000340 7f 90 47 3e c4 cc 47 be a0 e9 1d be 41 9c 05 3e
       0.19488715 -0.19511706 -0.15421152 0.13047887
000350 56 81 91 be fa 77 c3 3e 2c bf 3e 3e 7f 1b ec be
       -0.28418988 0.38177472 0.18627614 -0.46114728
000360 92 df 61 bd 40 b1 7b 3e f7 a8 c9 be 0d da 83 3c
       -0.055144854 0.24579334 -0.39386722 0.016095186
000370 9f 9c 43 be 61 8a 03 3e 81 ca e9 be c9 cd 84 be
       -0.19102715 0.12845756 -0.4566231 -0.25938252

sequential/dense_1/BiasAdd/ReadVariableOp:0 f4 [7]
000000 4e 4e f8 3c ff 57 bc 3d 2f 7d 41 3d e3 ab c8 bd
       0.030310776 0.091964714 0.047238525 -0.0979841
000010 71 c1 f3 bd e1 5c 46 3d 88 08 40 bd
       -0.119021304 0.04842842 -0.046883136

sequential/dense/MatMul/ReadVariableOp:0 f4 [32, 32]
000000 1b a4 00 3e ef ce 2c 3d f4 14 53 3e dc a9 83 3e
       0.12562601 0.042189535 0.20613462 0.2571553
000010 b2 5f 15 3c 8e 05 d5 be 73 33 09 3c 0c 77 8d be
       0.009117054 -0.416058 0.008374083 -0.27629888
000020 a3 1f 2c 3e d4 17 01 be f9 41 b2 bd 4e 16 ac 3e
       0.16808943 -0.12606746 -0.087039895 0.33610767
000030 3c 3e 3a be 4b c1 17 3e b0 44 aa 3e f6 2d 86 be
       -0.18187803 0.14819829 0.3325553 -0.2620694
000040 77 0f a3 3d e4 3a f3 3d c0 52 76 3d b2 b5 c9 be
       0.07961934 0.11876467 0.06013751 -0.39396435
000050 ad 61 68 bd 21 36 8a 3e 4b 8b 68 3e 6d 65 8a 3e
       -0.056733776 0.26994422 0.22709386 0.27030507
000060 31 80 06 bd 26 53 9d 3e 31 ca 20 3e 25 21 2b 3e
       -0.032837097 0.307275 0.1570213 0.16711862
000070 cf 8a 52 be 4c 42 9d 3e f7 73 e3 bc 0f 0b c3 3d
       -0.20560764 0.30714643 -0.027765257 0.09523594
000080 9a 91 53 3d af f6 5a be a6 53 2f bd 72 a0 1b be
       0.05165253 -0.21383165 -0.042804383 -0.15197924
000090 56 be fc bd 29 be b2 3e ba 62 85 bd bf 7f 5a 3e
       -0.12340991 0.34910706 -0.06512971 0.21337794
0000a0 ee bd 9e 3d e2 8f 95 3b 2d 28 93 be e2 e6 8a be
       0.0775107 0.0045642713 -0.2874159 -0.27129275
0000b0 53 50 87 be 36 81 29 be c1 be 48 3d 51 4b 00 be
       -0.2642847 -0.16553196 0.049010042 -0.12528731
0000c0 af d3 aa be cf dc 4b 3e af 01 5e 3e 92 5a fe bd
       -0.33364627 0.1990845 0.2168033 -0.12419619
0000d0 5e a7 7d 3d 5a 11 5e 3e ba 19 8b 3e 3f 10 e7 bc
       0.061927192 0.21686307 0.27168065 -0.028205989
0000e0 17 6c 57 be f4 4f fd bd 90 76 ac 3e 68 15 f4 3d
       -0.21037327 -0.123687655 0.33684206 0.119181454
0000f0 25 a2 58 3d 14 60 ab be da 21 bf be cd 98 79 be
       0.052889008 -0.3347174 -0.37330514 -0.24374695
000100 c4 65 af bd 66 03 1e 3e 8e db 69 be ad 19 2d 3d
       -0.08564332 0.15430984 -0.2283766 0.042260814
000110 a4 e1 d4 3d ba d3 b7 3c 58 72 97 3e 9b ba 89 3d
       0.103946 0.022439826 0.29579425 0.06725045
000120 dc e6 30 3e 8c 36 b2 3d ce af 8f bd fe b1 2a bb
       0.17275566 0.0870181 -0.07015954 -0.0026046033
000130 63 f8 5c 3a 43 8b f4 3c c5 bf ec bd fc ed 76 bc
       0.00084293465 0.029851561 -0.11560015 -0.015071388
000140 f3 5c ab 3e 6e 4b 1d be 2c 56 41 bd f1 6b b6 bd
       0.33469352 -0.15360805 -0.04720132 -0.08907307
000150 90 90 ca bd fa d1 39 3e 84 ce 89 be ec 75 86 be
       -0.09890854 0.18146506 -0.2691537 -0.26261842
000160 4f dc ee bd fb 07 80 be a9 ab 78 be f6 c4 c0 bd
       -0.11663114 -0.2500609 -0.24284233 -0.09412567
000170 3a 4d a0 3e 4d a9 40 be 5d 73 84 3e f6 97 59 3d
       0.3130892 -0.18814583 0.25869265 0.053123437
000180 b6 1a 51 3e 9b eb 38 be 6b 52 56 3d 0a 92 27 be
       0.20420346 -0.18058626 0.052324694 -0.16364303
000190 6b dd 61 be 95 ec d5 bc 50 43 31 3e de 4a 3a be
       -0.2205712 -0.026113788 0.17310834 -0.18192622
0001a0 d9 86 e7 bc 39 50 72 be 70 3e fb 3c 44 4c 9d 3e
       -0.028262543 -0.23663415 0.030669421 0.3072225
0001b0 3f 35 6e 3e c9 c5 4c 3e f1 4e 6b be 70 7e 2c 3c
       0.232625 0.19997324 -0.22979333 0.010528192
0001c0 4e 07 c0 3e 7d bd 67 be 05 02 d3 3d c7 20 3e be
       0.37505573 -0.22630878 0.103031196 -0.18567191
0001d0 6a 5e 81 be 7e 3b 9c bd e5 89 d0 be a2 57 1d 3e
       -0.25267345 -0.07628535 -0.40730205 0.1536546
0001e0 30 4c 8d be 54 da 32 3e 08 28 84 be 51 9c 22 3e
       -0.2759719 0.17466098 -0.2581179 0.15879942
0001f0 65 97 be 3c d8 56 21 be cb 36 6c 3e 04 12 94 be
       0.02326555 -0.15755785 0.23067777 -0.28919995
000200 67 2a f6 bd bb 74 8f 3d 81 ef af 3d c8 8b 56 be
       -0.12019806 0.070046864 0.085906036 -0.2095176
000210 7d dd 9a 3e 56 ed c2 3e ce 82 70 be f0 dc a2 3e
       0.30247107 0.38071698 -0.23487398 0.31809187
000220 4c 35 8a be ca 60 51 be 04 e2 ab bd 3c 67 9f be
       -0.26993787 -0.20447078 -0.083927184 -0.3113345
000230 a5 f2 28 be f6 db 7f 3e 69 67 1b 3e 2e 20 85 be
       -0.16498812 0.24986252 0.15176167 -0.26001114
000240 cb 54 b6 bd f0 1d 19 be c4 50 b5 3e d3 48 d1 bd
       -0.08902892 -0.14952826 0.35413182 -0.10218968
000250 d6 4f 93 be 57 d4 3c be d5 23 32 3e 34 db ad 3c
       -0.28771847 -0.18440376 0.17396481 0.021222688
000260 c8 46 04 3e fb a7 dc 3d 8f bd e1 3d 16 01 79 be
       0.12917626 0.10774227 0.110224836 -0.2431682
000270 ae 49 81 be 76 25 d9 be 19 4f a5 be cb 42 88 be
       -0.25251526 -0.42411393 -0.3228691 -0.2661346
000280 cc d8 e2 bd 11 ba 04 be df 48 3a 3e 32 38 f6 bd
       -0.11076507 -0.12961604 0.1819186 -0.12022437
000290 05 2b 7d bd 43 60 8d 3e aa 8c e3 3d a5 ef a8 3e
       -0.061808605 0.27612504 0.11110814 0.32995334
0002a0 c7 c1 ef bd 77 56 35 3e ad 11 94 bc 59 74 a2 be
       -0.11706882 0.17708765 -0.018074835 -0.3172939
0002b0 91 6f 02 3d 39 97 9e be 3d b1 14 3e b8 7f c8 bd
       0.03184468 -0.3097475 0.14520736 -0.097899854
0002c0 20 05 29 3e f6 e1 b4 bd 50 e8 27 be 16 5f c7 bb
       0.16505861 -0.08832161 -0.16397214 -0.006084333
0002d0 5e 80 96 3b f4 9d 99 be af bd 67 bc f0 4f 42 be
       0.0045929393 -0.3000332 -0.014144345 -0.18975806
0002e0 9a 11 b5 bd 7d 3d a4 3d 4e 94 8f 3d 39 3e 75 3d
       -0.08841248 0.080195405 0.07010709 0.059873793
0002f0 3a ec e3 bd b9 0a a5 be 4b 16 79 3e c5 dd 34 3e
       -0.11129041 -0.32234743 0.2432491 0.17662723
000300 d2 9e 59 be 27 64 1b 3e f0 1d 54 bd 36 6c 52 bd
       -0.21251991 0.15174924 -0.051786363 -0.05137273
000310 3f 92 27 3e 42 07 0b 3e 3d 63 dc 3d a6 2a 55 3e
       0.16364382 0.13576987 0.10761116 0.2081705
000320 30 6d 5b 3d 0b 8e 48 be ec ce 84 3d b0 8f 79 3e
       0.053570926 -0.19585435 0.0648478 0.24371219
000330 4e ab 8b bd e4 e0 de 3d 42 5b 79 be 08 5a 8a 3e
       -0.06819783 0.10882738 -0.24351218 0.27021813
000340 6b 0f 72 bd 50 b2 bd 3e b2 0e dc bd a8 89 ae 3b
       -0.059096735 0.37050104 -0.107449904 0.0053264685
000350 40 9d 7e be a1 9b 8f 3e db 5f 46 3e 58 90 9f 3e
       -0.24864674 0.28048423 0.19372503 0.31164813
000360 8e db d1 3e 50 d4 96 3d 96 92 89 3e f9 50 06 3e
       0.4098782 0.07364714 0.2686965 0.13116826
000370 e0 32 c7 3d 88 37 02 be fa 50 40 be 7c 00 96 be
       0.097265005 -0.12716496 -0.1878089 -0.29297245
000380 b3 11 5f 3e c2 ac b0 3e 96 d2 26 3e 77 c0 39 3d
       0.21784095 0.34506804 0.1629127 0.045349564
000390 06 d5 57 3e 35 29 80 be 98 8d 5e be d0 94 4f be
       0.21077356 -0.25031438 -0.21733701 -0.20271611
0003a0 c9 c3 df 3c 2f 51 8b be e2 92 16 be 81 db 98 be
       0.027315037 -0.27210376 -0.14704469 -0.29854968
0003b0 96 f6 77 3e 67 0e 58 3e db c9 3a be 48 eb 9a be
       0.24215159 0.21099244 -0.18241064 -0.3025763
0003c0 f4 45 b0 be e6 22 8d be 3f 64 54 bd af dd 85 3e
       -0.3442837 -0.27565688 -0.051853415 0.26145694
0003d0 21 32 61 bd 8e 87 60 3e 5e 8e 06 be b0 97 89 3d
       -0.054979447 0.2192671 -0.13140246 0.06718385
0003e0 42 22 70 be c7 3c d6 bb 79 81 19 3e d8 0a ca bd
       -0.23450568 -0.006538007 0.14990796 -0.098653495
0003f0 d4 50 22 3e de ec f5 3d 18 79 91 3d 6a dc 7e bd
       0.15851146 0.120080695 0.07103175 -0.062221922

sequential/dense/BiasAdd/ReadVariableOp:0 f4 [32]
000000 59 55 42 bd d9 f1 00 3d b2 3b 4c bd af 72 17 3d
       -0.047444675 0.031480644 -0.049861617 0.036974605
000010 fb 20 37 3c 6d 8a f3 3d b4 e6 70 bc c3 2e ef 3d
       0.011177297 0.11891637 -0.014703441 0.11678841
000020 f9 ff 89 bb 37 64 84 bd 46 ea b3 3d 8c 8f f8 3d
       -0.0042114225 -0.06464427 0.087849185 0.121367544
000030 4c 2d 44 bd ed 01 e4 3c 09 0b 01 bd 79 0a bb 3d
       -0.04789476 0.02783295 -0.031504665 0.09132857
000040 66 79 27 bc 1f b3 90 3d 4d 37 03 3d 6a 6c bc 3d
       -0.010221815 0.07065415 0.03203516 0.09200366
000050 e1 20 a7 bc 46 1e d3 bc af b3 e0 3c cb d5 e8 3d
       -0.02040142 -0.025771271 0.02742943 0.11368903
000060 d4 1d 6a 3d 23 9d 00 bb 8c d7 34 3c 27 3c 30 bd
       0.057157353 -0.001962491 0.0110377185 -0.043026116
000070 01 5d 90 bd 1c 98 08 3d d4 40 0b bc 77 00 17 3d
       -0.07048989 0.033348188 -0.008499343 0.036865678

sequential/batch_normalization_1/batchnorm/sub:0 f4 [32]
000000 74 58 4a 3f 01 68 6d bf 22 cc 06 3f 57 aa 23 3e
       0.7904122 -0.9273682 0.5265523 0.15982948
000010 51 b4 29 bf fc 1c 8c 3e 14 78 7a 3f c2 46 c8 be
       -0.66290766 0.27365863 0.97839475 -0.39116484
000020 d5 b1 eb 3d 56 27 33 3f 7c af ef 3e 31 d1 e4 be
       0.11508528 0.69981897 0.4681357 -0.4469085
000030 c3 9a 63 3e 83 1d 87 3e b3 02 25 bf 19 6e 4e bf
       0.22227006 0.26389703 -0.64457244 -0.80636746
000040 52 da 35 3d 02 96 8b 3e 04 83 eb be fb b8 a4 be
       0.04439766 0.27262884 -0.45998394 -0.3217238
000050 0c 2c ea 3e 19 d1 3b bf 5f f5 80 bf e7 aa ae 3f
       0.4573673 -0.7336593 -1.0074881 1.3645905
000060 8e b6 f5 bd b5 7e ee be ea 65 57 3e 70 a4 6b 3d
       -0.1199771 -0.46581045 0.21034971 0.057529867
000070 86 99 f4 be 13 8d 57 3f 22 c4 a2 3e 60 f0 62 3f
       -0.4777338 0.8419964 0.31790262 0.88648033

sequential/batch_normalization_1/batchnorm/mul:0 f4 [32]
000000 86 5e 30 40 44 03 47 40 e7 ac 81 40 c0 02 21 40
       2.7557693 3.1095743 4.0523562 2.5157928
000010 01 86 34 40 1e f8 18 40 d0 b3 4a 40 be 68 4a 40
       2.820679 2.3901439 3.167225 3.162643
000020 c8 64 13 40 50 96 0d 40 69 75 1e 40 61 59 71 40
       2.3030262 2.2122993 2.4759161 3.7710803
000030 ee 67 13 40 de 2d 22 40 39 02 0c 40 a3 ef 6c 40
       2.3032184 2.5340495 2.1876357 3.7021263
000040 05 7c f8 3f 05 70 3b 40 83 5b 2c 40 71 b1 4e 40
       1.9412848 2.9287121 2.6930854 3.2295802
000050 ff 51 1e 40 4f 75 57 40 b0 4c 1a 40 15 70 65 40
       2.4737546 3.366535 2.4109306 3.584966
000060 31 14 0b 40 60 a4 21 40 55 49 6b 40 63 07 09 40
       2.1731074 2.5256577 3.6763508 2.1410758
000070 2c 5e 2c 40 a6 0b 90 40 94 cd 3a 40 2a bc 7e 40
       2.6932478 4.501422 2.9187975 3.9802346

sequential/batch_normalization/batchnorm/mul:0 f4 [1, 1, 64]
000000 89 99 b5 41 f2 22 5c 41 40 45 a9 41 04 9c bd 40
       22.699968 13.758532 21.158813 5.925295
000010 12 08 99 41 83 c8 5d 41 cb 62 9a 41 f4 0b 9e 41
       19.12894 13.861453 19.298239 19.755836
000020 18 a5 a5 41 d6 54 87 41 51 79 93 41 03 5e d4 41
       20.705612 16.916424 18.434237 26.545904
000030 bf ae 42 41 ac d8 0a 41 2b d0 a4 41 f5 8f a1 40
       12.167663 8.677898 20.601645 5.048823
000040 83 1f 7a 41 cd f2 2f 41 74 40 dc 41 83 25 c7 41
       15.632693 10.996778 27.531471 24.893316
000050 bf 09 6f 41 1d b1 6e 41 e0 1f de 41 ee ef ae 41
       14.939879 14.918241 27.765564 21.867153
000060 f6 65 98 41 29 71 90 40 0a 84 56 41 09 99 8b 41
       19.049786 4.5138135 13.407236 17.449724
000070 a8 a1 8a 41 6d 83 ad 41 5d 82 c4 41 fa e3 2c 41
       17.328934 21.689173 24.563654 10.805658
000080 2f 1a 8f 41 f5 72 78 41 2b 84 7e 41 f7 6f cb 41
       17.887785 15.528066 15.907268 25.42967
000090 33 66 ae 41 db 63 84 41 44 b7 50 41 3f d3 8e 41
       21.799902 16.548758 13.044743 17.853148
0000a0 c4 f0 9d 41 5f bf c0 40 48 6b 96 40 87 ea b9 41
       19.742561 6.0233607 4.700596 23.239515
0000b0 80 0a 69 41 9f 50 e9 40 20 69 7e 41 ff 0c 2d 41
       14.565063 7.2910914 15.900665 10.815673
0000c0 4c 43 23 41 87 e8 8a 41 76 3d 79 41 25 b2 c1 41
       10.20393 17.363539 15.577505 24.211985
0000d0 d4 c4 b8 41 1d cd 48 41 2c fc bf 41 11 81 80 41
       23.096107 12.5500765 23.99813 16.06302
0000e0 fe 4a dc 41 28 18 c8 41 8a dc 3a 41 3a a4 a8 41
       27.536617 25.011795 11.678843 21.080189
0000f0 11 86 cc 41 0a 2c c3 40 36 23 d2 41 85 be c8 41
       25.565462 6.099126 26.267193 25.093027

const_fold_opt__142 f4 [1, 1, 64]
000000 ed f0 35 be 94 d5 5b be a5 e8 2c be a4 9b 78 3d
       -0.17767687 -0.21468192 -0.16885622 0.060695305
000010 d1 23 b9 be 0e 7f ee 3e 95 4b 90 3d 7e 79 33 3d
       -0.36160138 0.4658131 0.07045666 0.043817036
000020 71 1a c0 3e c2 a4 82 3e 8f 4a 00 bf c0 fd 2f 3f
       0.37520173 0.25516325 -0.5011377 0.68746567
000030 32 ab 9f 3d 9e 5d 22 3e 75 b5 18 3e da 42 7e bd
       0.07796325 0.15856025 0.1491297 -0.062075473
000040 56 fb a7 3e db 94 8d 3e b1 59 5e be cc 48 90 3d
       0.32808942 0.2765263 -0.21713902 0.07045135
000050 c7 e1 16 be cf 3f fd bd 78 7f eb be b4 5e d7 bd
       -0.14734565 -0.12365686 -0.45995688 -0.1051611
000060 5f a2 a1 be f0 5b 31 bc 8d 7a 54 bf 57 98 b4 3d
       -0.31569192 -0.010825142 -0.829995 0.08818119
000070 75 92 28 be fc c9 d1 be cd 42 02 3e 40 23 be be
       -0.16462119 -0.40974414 0.12720795 -0.3713627
000080 18 d8 a4 3d f8 de f2 3e b3 5c 39 bd 8c 40 b4 3e
       0.08049029 0.47435737 -0.04525442 0.35205495
000090 cb 2d 16 be 28 94 2f 3e a0 a0 1f 3e 36 52 96 3e
       -0.14665906 0.17146361 0.15588617 0.29359597
0000a0 ea bd e6 bd 76 ca fd 3d f6 f1 83 3d 6d 23 97 be
       -0.11266692 0.12392132 0.06442635 -0.29519215
0000b0 b9 61 a2 be a9 3a ac 3d 9f 27 67 be 45 81 cd 3e
       -0.3171518 0.08409626 -0.22573708 0.40137687
0000c0 38 01 c5 bd 55 a9 ff be e3 7e c6 bd 5c 86 d0 3e
       -0.09619373 -0.49933878 -0.096921705 0.40727508
0000d0 db 6c ac bd 32 1f 6e 3e 88 30 3d 3e f2 62 05 bd
       -0.084192 0.23254088 0.18475544 -0.032565065
0000e0 af ad cf bd 32 fd e0 bd 79 cd 38 3c b4 31 ed be
       -0.101405494 -0.10985793 0.011279457 -0.46326983
0000f0 d0 5e df be e1 0d 8d 3d a0 34 bf be 1c 79 ec 3e
       -0.43627024 0.06887413 -0.37344837 0.4618615

W0__62 f4 [1, 128, 64]
000000 3a b7 3d bc eb e7 20 3d c9 09 1f 3d f0 25 72 bd
       -0.011579329 0.039283674 0.03882769 -0.05911821
000010 64 4d 5c 3d 89 d5 a6 3d 64 a2 91 bd 1d 7d 36 be
       0.053784743 0.08146197 -0.07111052 -0.17821164
000020 e6 0e 90 3d 57 99 fd 3d e7 3e 16 3e 13 16 91 bd
       0.07034092 0.12382763 0.14672433 -0.070842884
000030 e6 94 12 3e 92 4f c6 bc 37 6f 08 bd 97 17 f0 3c
       0.14314613 -0.024207864 -0.033309188 0.029308124
000040 49 0f 2d 3d b9 6e 1e 3c 40 7a ed bd a4 bb 6c bd
       0.042250905 0.009669953 -0.11595583 -0.057796136
000050 f0 76 a5 3c b8 c3 41 bd 03 99 b9 bd e6 ae 1d be
       0.020198315 -0.047305793 -0.09062388 -0.1539875
000060 06 47 fa bd 5a 41 c0 bd 53 58 d6 3d f9 ff 10 3e
       -0.12220578 -0.09387465 0.10466065 0.14160146
000070 23 f1 b5 3d 70 6c 38 be 84 d2 90 3d 27 aa 8b 3c
       0.08883884 -0.18010116 0.07071403 0.017048908
000080 36 52 04 bd ac 2e 3f 3e c4 e4 0f 3d 5e 95 dc bd
       -0.032304965 0.18670148 0.035130277 -0.10770677
000090 9a 59 cd 3d 5d 9e 2a 3e 53 73 e7 3d b5 1a 1d 3c
       0.10026856 0.16661973 0.11301293 0.009588887
0000a0 be c7 a7 3d a9 84 c6 bd 59 79 20 3e e7 00 27 bd
       0.08192395 -0.09693272 0.1567129 -0.040772345
0000b0 95 69 64 3d 5a 00 14 be 54 25 eb 3d 8b c4 cb 3c
       0.055764753 -0.14453259 0.11481729 0.024873992
0000c0 45 51 b8 bd 70 69 ed 3d f9 71 0f be 6e b8 29 3e
       -0.08999876 0.11592376 -0.14008321 0.1657426
0000d0 ed 7e 99 bd 5c 47 f9 bd 6b 71 22 be e8 ef 63 3d
       -0.07494912 -0.12171814 -0.15863578 0.055648714
0000e0 9a cb df 3d 06 4a 43 be ac 12 18 bd ea a1 6f 3d
       0.10927506 -0.19071206 -0.037127182 0.058504023
0000f0 19 11 66 be 38 1b 86 3d 26 91 94 bd 44 cc b3 bc
       -0.2246746 0.0654816 -0.07254247 -0.021947987
000100 d0 f6 48 3b 3a 30 81 bc 11 1c 83 be de 82 5e be
       0.003066469 -0.015770067 -0.2560735 -0.2172961
000110 12 1a 56 bd 93 8e bd 3c 0b d9 88 bc be 36 80 be
       -0.052270956 0.023139274 -0.016705057 -0.25041765
000120 ad 5d e3 bb 18 78 44 be 28 2f aa 3d bb b3 69 3c
       -0.0069386573 -0.19186437 0.083097756 0.0142640425
000130 ae 97 31 3d 3a 29 91 bd ab f0 e1 bb 84 a8 32 3d
       0.043357544 -0.070879415 -0.006895145 0.04361774
000140 56 94 42 bd 00 c4 31 be ad 2f 80 be ce dd 93 bd
       -0.047504745 -0.17359924 -0.25036374 -0.0722004
000150 a4 b3 6f bc 76 f0 6e bb 2d 5c a9 bd e7 75 f9 3d
       -0.014630232 -0.0036459244 -0.08269534 0.12180691
000160 fc 90 1a 3e 9c db db bd 0b 32 f1 3d 40 83 d5 bd
       0.1509437 -0.107352465 0.11777123 -0.104254246
000170 08 22 ef bd 60 d8 2d be 3c f1 bb 3d 53 1f 46 be
       -0.11676413 -0.16977072 0.09176871 -0.19347887
000180 71 af cf 3d 84 50 ad bc 13 31 5f bd a0 3c bf bd
       0.10140885 -0.021156557 -0.05449016 -0.09337735
000190 18 04 12 3d 19 dc bd 3c 68 2b 10 3e ac 56 5c bc
       0.035648435 0.02317624 0.14079058 -0.013448399
0001a0 5c 80 11 3e 86 2c 55 3c b8 8b b3 bb f6 7b aa bc
       0.14209121 0.0130111035 -0.0054793023 -0.020811062
0001b0 61 cd 4c be d7 c6 b5 3c 58 b1 ae 3d a1 19 9d 3d
       -0.20000221 0.02218954 0.085299194 0.07670904
0001c0 bd c5 c5 bd 6c 2f 85 3d 33 16 59 be 05 9c ac 3a
       -0.09656856 0.06503186 -0.21199875 0.0013169056
0001d0 7f 4c 5d bd 1d bf 4c 3e 17 a4 3c 3e 50 33 67 be
       -0.05402803 0.19994779 0.1842197 -0.22578168
0001e0 65 ad c9 bc bb b3 4b 3e 6b d2 00 bb a0 bd 1f be
       -0.024618814 0.1989278 -0.001965667 -0.1559968
0001f0 24 cf 2b 3b b0 29 f8 bd 33 6e 8d 3d b1 ba c4 3d
       0.0026215995 -0.12117326 0.069057845 0.09605921
000200 48 82 05 3e 1b 9a 35 bd a7 03 24 3e a2 fc cd 3d
       0.1303798 -0.04433642 0.16017018 0.100579515
000210 ea f8 a9 bd e3 db 3f be 24 d4 cf bd f4 03 27 bd
       -0.0829943 -0.18736224 -0.101478845 -0.040775254
000220 e4 ef ba bc 5a 55 a1 bd 41 07 2c bd f1 d3 77 3d
       -0.022819467 -0.07877608 -0.041999105 0.060504857
000230 5d be b7 3d a6 d4 2b bd 27 25 fe bd 5d 83 80 bd
       0.08971856 -0.041950844 -0.1240943 -0.062750556
000240 ba dd 99 3d ac 50 81 bd 67 5d b6 3d 0f a9 a7 3d
       0.07512994 -0.06314215 0.08904534 0.08186542
000250 18 12 78 3d a5 86 08 3e 19 d3 27 3e 2c 6e a0 bb
       0.06056413 0.13332613 0.16389121 -0.004895946
000260 fa c2 2f 3e e7 0e 22 be 38 79 8f bd b5 9f 27 3e
       0.17164221 -0.15825997 -0.070055425 0.16369517
000270 66 74 c5 3d 22 a2 4a bc 2f 39 9e 3c 0a 80 96 3c
       0.09641342 -0.012367757 0.019314377 0.0183716
000280 72 2c 4a bb ac a3 8f bc 28 cb 11 be a8 81 38 3d
       -0.0030849245 -0.0175341 -0.14237654 0.045045525
000290 4a ba 58 bd 15 76 c6 bc 41 34 f4 3d 8d 5e c2 bd
       -0.052912034 -0.024226228 0.11924029 -0.094906904
0002a0 59 ff 73 bd 6d 27 57 bd 52 fd 11 bb 2b 52 eb b9
       -0.05956969 -0.052527834 -0.0022276235 -0.00044883913
0002b0 3f 81 24 be 74 04 c6 3c c1 40 88 3d c6 b7 95 bd
       -0.16064928 0.024172045 0.06652976 -0.073104426
0002c0 95 7d a9 bc 4b 19 38 bb 08 14 2a 3e c2 33 b3 3d
       -0.020689765 -0.0028091248 0.16609204 0.087501064
0002d0 cf 88 01 be 13 b8 d5 bd 65 7f 27 bd 8c 4a 63 bb
       -0.12649845 -0.104355 -0.040892977 -0.0034681885
0002e0 4a aa 25 be 03 7c 3b 3d b7 1b 00 3e e2 15 26 be
       -0.16178241 0.045772564 0.12510572 -0.16219285
0002f0 fa fe 03 be e3 12 01 3e f8 15 63 bd 7b f4 8b 3d
       -0.12890235 0.12604861 -0.055440873 0.0683374
000300 ba c7 59 3c a3 4f 0c 3e 34 d3 f5 3c f7 6b d5 bb
       0.013292247 0.13702254 0.030007936 -0.0065131146
000310 38 6b a9 bd 84 bb 24 3e f3 a8 36 be 1e 64 bf bd
       -0.082724035 0.16087157 -0.17837887 -0.09345268
000320 cd df af bd 81 3a 83 3d 7d 67 10 3e 93 3e 26 3d
       -0.085876085 0.06407643 0.14101978 0.04058702
000330 2a 46 d8 3d ce 11 3c be 86 ff 8b bb 80 18 fd bd
       0.10560258 -0.18366167 -0.004272404 -0.12358189
000340 0c 21 48 bd 63 e8 c4 bd 83 4b 1e 3e fe 5d f4 3d
       -0.04885964 -0.09614637 0.15458493 0.1193199
000350 01 a3 18 3e f7 3c dc 3d 14 5f a3 3c 4a 52 cf bd
       0.14905931 0.107538156 0.019942798 -0.10123117
000360 8b 36 8a 3d 2d 85 27 3e cc 68 dd 3d dd 02 43 3e
       0.067486845 0.16359396 0.10811004 0.19044061
000370 3f c5 21 be 06 14 c0 bc 42 49 ec 3d c3 ac d6 3c
       -0.157979 -0.023447048 0.1153741 0.026205426
000380 97 f9 be 3d e5 a9 92 3d 06 5b 00 3b 1a f6 06 3d
       0.09324949 0.07161311 0.0019585504 0.032949544
000390 7a 49 9d bc 2b cf 1a bd 76 d7 8f 3d 3d 78 b6 bd
       -0.019200075 -0.037795227 0.07023518 -0.089096524
0003a0 25 a6 12 be 5e 97 65 3c 41 c6 22 3d 36 0a 04 3d
       -0.14321192 0.0140131395 0.03973985 0.0322363
0003b0 b9 ef 17 bb 42 ce 3c 3e 5d 3e f5 3d 0b 14 33 3d
       -0.0023183657 0.18438056 0.119747855 0.043720286
0003c0 54 2e d8 3d b7 33 36 3e f0 6d a0 bd 2e bf bf 3d
       0.105557114 0.17793165 -0.07833469 0.093626365
0003d0 29 ae 49 be 40 83 45 bd ec 2f 85 bc 48 ae 84 bd
       -0.19695343 -0.048220873 -0.016258202 -0.06478554
0003e0 e9 d6 82 3b 32 1e d0 3d 11 55 03 be 41 4d a0 3d
       0.0039929044 0.10162009 -0.12825419 0.07827235
0003f0 ee 81 2d bd 1b 46 21 3e 8b b5 01 3e 90 03 2a 3e
       -0.04236024 0.157494 0.1266691 0.16602921

W0__41 f4 [1, 256, 1]
000000 5b f1 3b 3c ce 53 5a bd 1b d7 37 3e ec 4d a7 bd
       0.011471118 -0.05330258 0.1795315 -0.08169159
000010 17 09 9e bc 41 cb 76 be 84 c9 21 be 7f 17 2a be
       -0.019291444 -0.24100973 -0.15799528 -0.16610526
000020 f9 8f b3 bd ec c1 95 bd 95 1e 51 3d ac dd e0 bd
       -0.08767695 -0.07312378 0.051054556 -0.109797806
000030 2a df 12 3e c4 a4 f9 bc 24 72 56 bd 97 55 ab bd
       0.14342943 -0.030474074 -0.052354947 -0.08365934
000040 4a 30 7d be 8c fb f7 3d 60 72 9b 3d e9 2f 57 bd
       -0.24725452 0.12108526 0.07590175 -0.052535925
000050 7f 5f f5 bd 1b 63 f4 bd 76 27 9a bd c9 e2 d7 bd
       -0.11981105 -0.11932965 -0.07527058 -0.10541303
000060 0f a5 80 bb 1d 3d 88 3c fe d0 f1 3d 7d 78 d2 3d
       -0.0039259265 0.016630704 0.1180744 0.102768876
000070 53 bf b1 3c cc 8c fa 3d 27 74 b5 ba 4d f1 a2 bd
       0.021697676 0.12233886 -0.001384382 -0.07956181
000080 70 64 c9 bd 5e 20 3d be fc 8b 3a be 1b 5f 86 3d
       -0.0983361 -0.18469378 -0.18217462 0.06561109
000090 10 89 33 be 38 a8 a0 bc e3 76 b3 3d c0 b7 62 3d
       -0.17532754 -0.019611463 0.0876291 0.05535102
0000a0 fc 88 0e bd 0c 75 f7 bd c6 71 26 3e 2b 6b c8 bd
       -0.034798607 -0.12082872 0.16254339 -0.09786066
0000b0 4c d3 aa 3d 66 93 87 bc 69 56 25 bd 88 de 4c be
       0.08341083 -0.016549777 -0.04036561 -0.20006764
0000c0 03 15 14 3e cb d6 6d be 6f b5 99 be 99 79 5c bd
       0.1446114 -0.23226468 -0.30021235 -0.053826902
0000d0 9e 15 8b 3c 61 f3 73 3c 7e 8e a9 3d 04 b4 1e bd
       0.016978081 0.014889569 0.08279131 -0.038745895
0000e0 cf 0e 8c bd c7 1a 23 be 97 4c d7 bd fb 57 27 be
       -0.06838762 -0.15928183 -0.10512655 -0.16342156
0000f0 91 8c 90 bc 11 d5 64 3e a8 96 b5 bd 43 bd 7f 3d
       -0.017645152 0.22346903 -0.08866626 0.062436353
000100 b2 ce e2 bd 95 f9 6f 3e 43 95 25 bd ec ff 1c 3e
       -0.1107458 0.23435052 -0.04042555 0.15332001
000110 08 8c 13 3d 0a 8d 39 be 3c d1 b1 bd 2e 20 4b be
       0.036022216 -0.18120208 -0.086824864 -0.19836494
000120 b2 0a 33 bc 29 53 c6 bd 40 2a 95 bc b2 d8 af bc
       -0.010927843 -0.0968383 -0.018208623 -0.021465633
000130 ca 66 56 be c3 c7 dc 3d 23 2f 01 3d b5 15 50 3e
       -0.20937648 0.10780289 0.031539094 0.2032078
000140 65 ab 22 bd f7 bb b9 bd 7f 0b 21 be d9 bc 8b bd
       -0.039714236 -0.090690546 -0.15727042 -0.06823129
000150 f1 92 bc 3d bb bc 6d 3c 3b a7 13 be cf 48 af bd
       0.09207714 0.014510329 -0.14419262 -0.08558809
000160 b7 a0 df bd b5 a6 68 3e 8e e0 0a 3c de 21 ee bc
       -0.10919326 0.22719844 0.00847639 -0.029068884
000170 d1 85 33 be 36 30 2f 3d a4 36 4a be 03 45 08 be
       -0.17531516 0.042770587 -0.19747406 -0.13307576
000180 27 df 28 bc 8d 41 6b be c9 d1 72 bd ea bd 3b bd
       -0.01030711 -0.22974224 -0.059282098 -0.045835413
000190 fd 9a 94 bd 1d 12 f6 bd 7b 67 0e 3e 27 cf 94 bc
       -0.07256124 -0.120151736 0.13906662 -0.018165184
0001a0 c8 43 6d 3c a1 e8 da 3d 0e 58 32 bd da cd ef bd
       0.014481492 0.10688902 -0.043541007 -0.11709185
0001b0 df ec 21 be fb 41 df 3d cb 68 b9 bd 0c ba 4c bd
       -0.15813015 0.10901257 -0.09053191 -0.049982116
0001c0 d1 25 13 3c de 89 81 be 0f 30 8c be ec 02 c2 3d
       0.008981184 -0.25300497 -0.27380416 0.094732136
0001d0 46 65 46 bd 93 a8 31 be 72 77 f0 bd 09 aa 3c be
       -0.048436426 -0.17349462 -0.117415324 -0.18424238
0001e0 f6 d7 e7 3d 86 26 f7 3c 86 d8 53 be bf 36 0b be
       0.11320488 0.030169737 -0.20688066 -0.13595103
0001f0 92 4f 47 bd 9d e4 73 bd 09 e2 c3 bc 12 9e 55 3d
       -0.04865987 -0.059544194 -0.023911493 0.0521527
000200 8d fb e7 bd e8 7e 5d 3e d9 19 3f bd 90 de 0a 3e
       -0.113272764 0.21630442 -0.04665551 0.13561463
000210 f1 6a 19 be 68 8d 46 bd 62 20 b2 bd 7a c0 56 bd
       -0.14982201 -0.0484747 -0.08697583 -0.052429654
000220 42 64 16 be af e3 87 bd a6 3c 99 bd 28 47 01 be
       -0.14686683 -0.06635224 -0.07482271 -0.126248
000230 c3 28 6e 3b 86 d6 21 be ab a6 ea 3c 3f 1c 42 3e
       0.0036340214 -0.1580449 0.028643927 0.18956088
000240 8b 4d 19 be 36 7a 95 3d 06 8f 07 3d 01 22 8a bd
       -0.14970987 0.072987005 0.033095382 -0.06744767
000250 f1 38 89 bd 16 52 d0 3d fe 0f c2 3d ff 2f 91 bd
       -0.06700314 0.10171907 0.094757065 -0.07089233
000260 a7 65 43 bc b1 d1 27 3e 00 d9 1a 3d 3f d1 c5 bc
       -0.011926091 0.16388585 0.037804604 -0.024147628
000270 21 a7 bd 3b bd ed d8 bb 1e ed b0 bd 9d 79 bc 3d
       0.0057877456 -0.0066201375 -0.086389765 0.092028834
000280 e6 53 05 be 9b c5 6b be b5 80 28 be a9 36 8c bd
       -0.13020286 -0.23024599 -0.16455348 -0.06846363
000290 13 7b 34 be 78 4e 38 3d 6a 6b 5b 3d 32 ba ca 3d
       -0.17625074 0.04499671 0.053569235 0.09898795
0002a0 ee ee 8a 3c 6f 25 41 3e 0e b9 22 3c ca c0 1c 3b
       0.016959634 0.18861936 0.009931816 0.0023918622
0002b0 58 b4 8a bd 14 db c6 bd 35 87 95 bd c9 dc f2 bd
       -0.06772679 -0.097097546 -0.07301179 -0.11858518
0002c0 43 95 1e be e6 9c c2 3b 45 ca 3c be b0 f2 a4 3d
       -0.15486626 0.005939114 -0.18436535 0.080541015
0002d0 55 f7 01 3c ab 3d 38 bd 75 cd 03 be a8 ba 2b be
       0.007932504 -0.044980686 -0.12871344 -0.16770422
0002e0 89 18 11 be c4 47 07 be 2d 3c ea bd 18 8f 0d be
       -0.14169516 -0.1321097 -0.11437259 -0.13824117
0002f0 29 5a 31 bd dd 90 b5 bd 63 c9 64 bd 7c 7f 07 3d
       -0.043298874 -0.08865521 -0.05585612 0.033080563
000300 c8 f0 16 bd 0b 00 e9 bc 6b 2f 82 3d fd 49 7c 3b
       -0.03685072 -0.028442403 0.063567005 0.003849625
000310 67 f4 26 3e 95 51 45 3e df 64 31 3e 9e 7e c6 3d
       0.1630417 0.19269402 0.17323636 0.09692119
000320 97 40 1f be fe 9b df 3d 6e 27 0f 3e 4b 1b 34 bc
       -0.15551983 0.10918425 0.13979885 -0.010992835
000330 50 0d 49 be 88 b8 1a 3e 34 57 7e bd da e4 35 be
       -0.19633985 0.15109456 -0.062094882 -0.17763081
000340 da 92 37 3e 35 79 8e bd da 39 7b 3d a0 4b 98 3b
       0.17927113 -0.06956712 0.06133447 0.004647687
000350 81 93 1d 3e 72 60 19 3e 73 1e f8 3b 0a fb 17 3e
       0.153883 0.14978197 0.007571989 0.14841858
000360 0e a7 86 3d e9 1d c0 3d 22 4f 04 3e 19 01 8d bd
       0.06574832 0.09380705 0.12920812 -0.06884975
000370 27 22 ec 3d dd e0 c9 3d 99 8c 10 3d 13 2a 35 be
       0.115299515 0.098573424 0.035290334 -0.17691831
000380 bb 35 46 3d 3b cd 11 3e 0c 11 ba bd e2 21 2d bd
       0.048391085 0.14238445 -0.09085283 -0.04226864
000390 aa 62 e6 3d 00 e4 c0 3c 72 d1 b5 bc 40 74 c2 bd
       0.112492874 0.023546219 -0.022194598 -0.09494829
0003a0 51 a0 15 3e cc 60 fa 3d c1 0a 48 be aa 33 84 3c
       0.14611937 0.12225494 -0.19535352 0.016137917
0003b0 e1 8b 12 3e 1c cc ff 3c ae c7 d7 3d 2a 9f bf 3d
       0.14311172 0.031225257 0.10536133 0.0935653
0003c0 ad 7a ac bd 69 8c 0b be e8 f4 ba bd 9f 46 82 bd
       -0.08421836 -0.13627781 -0.091287434 -0.06361126
0003d0 15 bf 50 3d f0 06 3d be 78 2d bc bd 9d 96 30 bd
       0.05096348 -0.18459678 -0.0918836 -0.043112386
0003e0 d1 82 3c 3c 68 ca a0 bd 32 cc 66 3e a3 28 e7 3d
       0.011505798 -0.07851106 0.22538832 0.11287048
0003f0 3e f8 e4 bb 0e e2 10 be 61 f1 70 3d e1 a8 34 bd
       -0.0069876006 -0.14148733 0.058823947 -0.044106368

R0__63 f4 [1, 128, 32]
000000 78 d9 4b 3c 14 a7 22 bd e4 d6 9f bd 68 c8 92 bd
       0.012441985 -0.03971012 -0.07804659 -0.07167131
000010 5b 94 f0 3d d9 f1 a5 bb 90 00 43 3c 54 13 d5 3a
       0.117470466 -0.005064231 0.01190199 0.001625637
000020 b5 92 da bb 9d 7e a1 bd aa 69 f5 3c ab f0 38 bd
       -0.006670321 -0.07885478 0.029957611 -0.045151394
000030 0b ec df bd 67 08 c6 3c be ae 09 3c 13 b6 4c be
       -0.109336935 0.024173928 0.008403478 -0.19991331
000040 74 5d 37 be f5 dd 02 3d 60 48 f0 3d 72 b9 28 be
       -0.17906743 0.031949956 0.117325544 -0.16476992
000050 37 af 2a bd 3b 09 8d bc 5e a0 57 bd a9 bd 41 3c
       -0.041671004 -0.017216315 -0.052643172 0.011825004
000060 45 86 9e be f7 88 13 3e ec 98 04 bc fe ca a1 bd
       -0.30961815 0.14407717 -0.0080931 -0.07900046
000070 b7 a9 10 3d 9d a3 1a 3e 16 2c a1 bd 31 44 7d 3d
       0.035318103 0.15101476 -0.07869737 0.06183261
000080 e7 49 b9 bc 52 bf 77 3d 72 a7 0a 3c 86 4b 4f bd
       -0.022618247 0.06048519 0.008462774 -0.050609134
000090 df 1c 33 3c f5 68 25 3e 8b 70 11 be ef 9c 20 be
       0.010932176 0.16153319 -0.14203088 -0.15684865
0000a0 a6 75 92 be 21 68 2e 3d b8 08 61 be 5d 86 bc 3c
       -0.28605384 0.042579774 -0.21975982 0.023013288
0000b0 0c 19 20 3c ba 79 39 3e d1 69 34 be 78 c7 37 3e
       0.009771597 0.18112841 -0.17618491 0.17947185
0000c0 aa 3a 57 3e 10 44 bd 3d ec ac 10 3d 1f b9 7d 3d
       0.21018472 0.092414975 0.03532116 0.061944123
0000d0 d4 5f 9f 3c fc f0 2a be ac be 89 be 13 d2 32 bd
       0.019454874 -0.1669349 -0.26903284 -0.043657374
0000e0 d4 33 25 3e d9 bd a3 3c 53 f8 a0 be 78 b0 e4 3d
       0.16133052 0.019987987 -0.31439456 0.11166471
0000f0 96 08 35 be 24 36 ba 39 cb 48 99 3c 8b ab db 3c
       -0.17679057 0.00035517022 0.018711468 0.026815196
000100 71 5a 91 bd 8c ed 10 3d 7e 07 09 3e ee 4a 86 be
       -0.070973285 0.035382792 0.13381764 -0.26229042
000110 32 ef 2f be f6 cd da 3d 1b 70 c3 bb 10 74 90 be
       -0.1718109 0.10683815 -0.0059642917 -0.2821355
000120 1b f2 d4 bd eb 1f 74 3e 65 83 62 be 69 e8 8a bd
       -0.103977405 0.238403 -0.22120436 -0.0678261
000130 39 3d 9a 3d 54 85 9b 3d 6c c4 8a bd ff 5d a8 bc
       0.075312085 0.0759379 -0.06775746 -0.020552633
000140 aa f8 96 3d 16 da 1b 3d 62 0d 3f be ec f9 01 3e
       0.07371648 0.03804978 -0.18657449 0.12692994
000150 1b a4 e1 3d 46 81 8c bd cf d2 b4 bd 7b ab d2 bd
       0.11017629 -0.068605945 -0.08829271 -0.102866136
000160 88 93 08 3e 2c 49 a7 bd 8d 6a 85 3d b6 dc e9 3c
       0.13337529 -0.08168253 0.065144636 0.028547626
000170 db b3 b7 bd e8 77 33 be 6e 58 91 3c 37 ff 1c 3e
       -0.089698516 -0.1752621 0.017742362 0.15331732
000180 0f e5 72 3c 2b 6f 1a bc 4f 00 33 3e 6f cf 1b bd
       0.01482512 -0.009425919 0.17480586 -0.03803962
000190 6e c1 79 3b a9 dd ef 3b 3d d0 a1 bd 6a a5 44 3e
       0.0038109678 0.007320125 -0.079010464 0.19203725
0001a0 16 93 9b bd bb 2e b6 3d 63 0d a2 bd 96 a2 59 ba
       -0.07596414 0.08895632 -0.079127096 -0.000830212
0001b0 85 7c f8 bd 01 d7 a0 bd 5e f5 50 bd d2 8d 95 bc
       -0.12133125 -0.07853509 -0.05101525 -0.018256102
0001c0 1a df 83 bd 2f 84 80 3d e9 e4 13 3c 44 b3 2c bd
       -0.064390376 0.06275212 0.009026744 -0.04216315
0001d0 db eb cc bc 33 a6 21 3e b4 eb 04 be f2 ab 1f 3d
       -0.025014808 0.15786056 -0.12980539 0.03898234
0001e0 2a 2e b0 3c dd f0 66 3d 0e fb 42 bd 64 de b0 bd
       0.021506388 0.05638205 -0.047602706 -0.08636168
0001f0 c9 7d 15 be 1e 80 91 3e 27 cb e9 3d fa f2 a5 be
       -0.14598764 0.28418058 0.11415701 -0.3241194
000200 45 1e e7 3c c9 de 02 be 7e 75 0b bd a9 84 cc bd
       0.028212676 -0.12780298 -0.034047596 -0.099862404
000210 9a c4 16 3e d6 d2 14 3d 4c 4d 87 3d 6f ab 9e 3d
       0.14723435 0.03633388 0.0660654 0.07747542
000220 26 a9 12 bd bb d9 da 3c 25 df 33 be 86 f4 2c 3d
       -0.035805844 0.02671515 -0.17565592 0.042225383
000230 23 56 12 3d 57 cb 20 3e 67 83 10 be 14 3d ce 3d
       0.035726678 0.15702568 -0.14112626 0.100702435
000240 66 95 11 3e a8 b4 06 be e1 8e ab bd 02 f9 e4 bc
       0.14217147 -0.13154852 -0.08376861 -0.027950767
000250 c8 63 a1 3d 56 38 80 3d ba b9 af 3d 3b c7 8d bd
       0.0788036 0.06260745 0.085803464 -0.06922766
000260 69 e9 e1 3d 27 90 42 3e d9 d8 76 be 72 ab 04 3d
       0.110308476 0.19000302 -0.24106158 0.032390065
000270 b0 3b 19 be f9 52 48 3e e5 98 a4 ba 0f 4c 84 bd
       -0.14964175 0.19562902 -0.0012557773 -0.064598195
000280 a7 42 ea bd e7 7c ec 3d 06 8d ab bc 8d 79 09 be
       -0.11438494 0.11547261 -0.020941269 -0.13425274
000290 02 fb 3a 3d f9 58 0e 3c d1 97 b2 bd e2 8a a4 bd
       0.045649536 0.008688205 -0.08720363 -0.08034302
0002a0 46 dc cd 3c 8f 03 24 bc 7a dd ab bb a4 f8 5c 3e
       0.025129449 -0.010010614 -0.005244908 0.21579224
0002b0 d8 52 fb bc 7c 47 d8 3d 66 e7 57 3d 45 3f b2 bb
       -0.030679151 0.105605096 0.052710913 -0.005439671
0002c0 46 42 d4 bc 02 56 60 bd 98 a3 42 3d 36 5a 7b 39
       -0.025910508 -0.054769523 0.047519296 0.00023970832
0002d0 57 41 8a 3d 6d 80 20 bc e0 37 81 bc 2c 63 aa bd
       0.06750744 -0.009796244 -0.015773714 -0.08319697
0002e0 c5 a5 42 bb 22 62 19 3e a8 03 3c 3d a5 bc 70 be
       -0.0029700857 0.14978841 0.045901924 -0.23509462
0002f0 9c 95 0d 3e b6 ef fb 3d 92 1b 19 be bc dc fe bd
       0.13826603 0.123015806 -0.14951923 -0.124444455
000300 cb cf 9f 3d cb 3d df 3d 66 35 0b 3c 6b 17 93 3d
       0.07803305 0.10900458 0.008496618 0.07182201
000310 74 7d 8f 3e eb be 02 3d 95 54 8e 3d 53 ef 94 be
       0.280254 0.031920355 0.069497265 -0.2908884
000320 9f 0f cc 3d 01 7e 07 be 82 6f c9 3d ba bf fa bd
       0.09963917 -0.1323166 0.098357216 -0.122436
000330 b5 ee 88 3c 36 a1 c0 3d 17 05 e3 3d 09 69 cc bd
       0.016715387 0.094057485 0.11084955 -0.09980971
000340 58 d3 46 be 76 5e 5f 3d b2 c3 b2 3d 24 93 25 be
       -0.19416559 0.054533444 0.08728732 -0.16169411
000350 7a fe eb bd d5 3e 9d bd d7 84 fe 3d 91 9d 30 3d
       -0.11523147 -0.07678 0.12427681 0.043119017
000360 7e e5 88 bd 5e 2d 00 3e cd 25 63 3e 74 1f e8 3d
       -0.06684397 0.12517306 0.22182389 0.11334124
000370 8f 64 b0 3d b5 40 40 bd 08 ad 8d 3d 97 18 b2 3d
       0.0861293 -0.04693671 0.06917769 0.086960964
000380 82 b1 04 3e ae af 84 bc a3 70 9e bd 81 4a ca 3c
       0.12958339 -0.016197052 -0.077363275 0.02469373
000390 a3 48 eb bc b2 99 43 be a4 73 31 3e 73 24 81 3d
       -0.02872116 -0.19101599 0.1732927 0.0630578
0003a0 a2 a3 fa 3c 15 6e 02 3e db b9 1c 3d 5b 67 a3 bd
       0.030595604 0.12737305 0.038263183 -0.07978698
0003b0 ed 04 12 bd ee ea 13 3e 46 24 ec bd 6d 99 bf 3d
       -0.03564923 0.14445087 -0.11530356 0.093554355
0003c0 ff 61 55 be 50 19 05 be 2c 87 ed 3b c1 f1 3c bd
       -0.20838164 -0.12997937 0.0072487798 -0.046128992
0003d0 7c f9 3b 3e d7 28 ed 3c ed 90 fe bd f1 03 48 bd
       0.1835689 0.028950138 -0.12429986 -0.048831884
0003e0 c5 06 e5 3c a4 d1 df bd 11 4c 8b 3d 53 46 30 3e
       0.02795733 -0.10928658 0.06801618 0.17214327
0003f0 79 f9 09 be d8 90 01 3c 46 8b 5a bd 60 6a b6 3d
       -0.13474073 0.007908069 -0.053355478 0.08907008

R0__42 f4 [1, 256, 64]
000000 2c 05 c5 bc c0 8b 90 3d fb fe 97 bc b2 03 b5 3d
       -0.024050318 0.07057905 -0.018554201 0.088385954
000010 b4 8f 5f 3d 2c b1 19 bc 28 62 1f 3d 83 2c 05 3c
       0.054580405 -0.00938062 0.03891197 0.008128288
000020 33 38 2a bd bc 63 bd 3d 1e 97 f4 bd 71 92 21 3d
       -0.041557502 0.092475384 -0.11942886 0.039446298
000030 43 11 c3 bd 66 3c 44 3d 9a 7a 4f bd d8 c2 42 3c
       -0.09524777 0.047909163 -0.05065403 0.011887275
000040 0a 0f e4 bb 96 6b e6 3c 33 9f 73 bd 6b a4 5d bd
       -0.0069598006 0.028127473 -0.059477996 -0.05411188
000050 1a fc 3a bd 1d 17 9f 3c 70 32 b4 bd 80 fe 02 3d
       -0.04565058 0.019420201 -0.08798683 0.03198099
000060 a3 e6 ef bc ba 19 f8 bd be 69 c4 bc a5 73 2a bd
       -0.02928478 -0.12114282 -0.023976203 -0.041614193
000070 d8 94 d6 bc fe 33 c0 bd 34 67 4b 3d 33 b9 5e ba
       -0.026194021 -0.09384917 0.04965897 -0.0008496225
000080 c5 ba f7 3c b6 bd 68 bc f4 56 4f bd 3a a7 cb bd
       0.030240426 -0.014205387 -0.050620034 -0.09944005
000090 49 4e 26 3d 33 56 03 3e 9c 8f 9d bc ec 66 49 3d
       0.040602002 0.12825851 -0.019233517 0.04917042
0000a0 4c d9 86 3d de 46 73 bd b1 ed ad bd c4 26 b2 bc
       0.06584415 -0.059393756 -0.08492602 -0.021747
0000b0 1e 03 40 bd d0 ab 07 bd 0b 9a 16 3e 06 36 a8 3d
       -0.046877973 -0.033122838 0.147072 0.08213429
0000c0 a6 5f 31 bd d5 17 26 3d 3c 0f 57 3c 44 fe f8 3b
       -0.043304108 0.04055007 0.013126191 0.00759867
0000d0 aa 22 1f bd 6c 83 b6 3d 37 af d8 3d b1 de 6b 3d
       -0.038851418 0.089117855 0.105802946 0.057585422
0000e0 fc 54 fe bc 2a 1b c9 3d 83 b9 f8 3a c9 13 e2 3c
       -0.031046383 0.09819634 0.0018976185 0.027597325
0000f0 69 66 99 bc 6d 82 03 3e d9 4d 9f bd 7c d2 9f 3c
       -0.01872559 0.12842722 -0.0777852 0.019509546
000100 40 59 7c bd b7 a5 95 3d 96 e1 99 3d 32 8b 11 3c
       -0.061608553 0.07306998 0.0751373 0.008883284
000110 54 f7 20 3b af 0f 7a 3c 27 a9 39 bd 52 83 6d bd
       0.0024561482 0.015262528 -0.045327332 -0.057986565
000120 05 68 c0 bc e7 c6 d8 3d 35 d7 32 3d 3c 72 a1 bb
       -0.0234871 0.105848126 0.04366227 -0.004926948
000130 9e 52 a3 bd 8b ea a7 3d 12 60 17 3c 4b a6 4c 3d
       -0.07974742 0.081990324 0.009239214 0.049963277
000140 95 da 3d 3c ae 7a 8d bd 66 c2 4c 3d 52 cc 87 bd
       0.011587759 -0.06908165 0.04999008 -0.06630768
000150 65 13 85 3d f3 df 50 3c 6a 1a fe 3c 60 b9 21 3d
       0.0649784 0.012748706 0.031018455 0.039483428
000160 84 75 b2 bd 1e f9 32 3d e0 0c 4b bd e4 ca 1f bd
       -0.087138206 0.043694608 -0.049572825 -0.03901185
000170 0e a1 b6 3d b5 fa b5 3d 32 86 2e 3d 94 06 7b bc
       0.089174375 0.08885709 0.042608447 -0.015321393
000180 ac ce af bc 83 bf e9 3d 17 88 66 bd 5f d6 9c 3d
       -0.021460854 0.11413481 -0.05628213 0.076580755
000190 f2 02 34 3d 58 55 7e 3c 09 9d 98 3b 72 fc e9 bc
       0.04394812 0.015523277 0.004657392 -0.028562758
0001a0 da 73 e4 3c eb ab dd 3d 18 9c 1a be 34 61 13 bd
       0.027887274 0.108238064 -0.15098608 -0.035981372
0001b0 0d 62 51 3d d7 b0 af 3d ed 08 02 be de 5a 89 3c
       0.0511189 0.085786514 -0.12698717 0.016766962
0001c0 30 ba bd bd 86 5c d5 bd 3d 45 ae bd b2 10 c8 bd
       -0.09264028 -0.10418038 -0.085093 -0.097688094
0001d0 47 06 01 bd c3 19 63 bd 38 a2 bf 3d 92 40 ba bd
       -0.031500127 -0.05544449 0.09357113 -0.09094347
0001e0 d4 10 ba bd d4 1f 2f be db b7 5d 3d e1 9b 1b 3e
       -0.09085241 -0.17101985 0.054130416 0.15196182
0001f0 3b 37 fb 39 3f 7e d8 bd 9b d0 82 bd f8 46 5d bd
       0.000479156 -0.105709545 -0.063874446 -0.05402276
000200 df 6a 39 3e a7 5b f8 3d 1b 3c 7c 3d 9c 1a 05 3e
       0.18107174 0.12126856 0.06158076 0.12998432
000210 22 2b 72 be cf 1e 1a be c2 cd a8 bd 08 7a 4e 3e
       -0.23649266 -0.15050815 -0.0824237 0.20163739
000220 df fd b6 bd a2 0c 13 be 7e 7f 77 bd 2f 52 8d bc
       -0.08935141 -0.14360288 -0.06042432 -0.017251102
000230 d5 e6 3c 3e e4 87 a9 be a5 cb 76 3e 39 f8 21 3e
       0.1844743 -0.3311149 0.24101122 0.15817346
000240 0a a2 05 be 6b 36 5c 3e 99 12 d9 bd 70 9f 77 bd
       -0.13050094 0.21505134 -0.1059925 -0.060454786
000250 1d 7d 85 be f7 61 9d be b7 3a 89 3e 58 2b de bc
       -0.26072016 -0.30738804 0.26802608 -0.027120277
000260 02 b0 2b bd 55 87 1d be b9 88 e2 bc a5 24 c9 3d
       -0.0419159 -0.15383656 -0.027653085 0.098214425
000270 47 c6 4c be c0 3b 1a 3c ee eb 26 3d c2 8f d0 3d
       -0.19997512 0.00941366 0.040752344 0.101836696
000280 71 c4 4f be 36 81 8e be 2a 7c 29 3e 1b f7 a9 3d
       -0.2028978 -0.27832955 0.16551271 0.08299085
000290 02 c2 14 be 11 f6 86 be 49 d5 b8 3d 3e f1 ce 3d
       -0.14527133 -0.2635961 0.09025056 0.10104607
0002a0 b2 76 a2 3c dc 69 85 bd fd ed ac 3e a5 f4 b0 bd
       0.019831989 -0.06514332 0.3377532 -0.08640412
0002b0 b2 25 b5 bd 6e 56 51 be 5d 7d 37 be 67 c9 67 be
       -0.088450804 -0.20443127 -0.17918916 -0.22635423
0002c0 9d c1 2a 3e 3f db a1 3e c9 8b 21 3e dd 51 22 3e
       0.1667542 0.31612584 0.1577598 0.15851541
0002d0 e7 a6 9c 3d a0 9e 2e 3e a4 52 b2 3d ba 16 96 3d
       0.076490216 0.17052698 0.08707169 0.073285535
0002e0 1b b8 bd bd 27 c6 04 3e 93 d7 63 be 92 c5 07 be
       -0.09263631 0.12966214 -0.22250204 -0.13258961
0002f0 d2 e1 28 3e 34 c3 b1 3e 28 03 62 bd c6 9c 28 3d
       0.16492394 0.3471924 -0.05517879 0.041165136
000300 36 e9 76 bd b7 fc 86 bd b6 86 82 bd 1e 57 5d 3c
       -0.060281 -0.0659117 -0.0637335 0.01350954
000310 9e ea ae 3d 0f 48 12 3e bd a1 e6 3d 8c f1 c4 3c
       0.085408434 0.142853 0.11261318 0.02404096
000320 77 b0 76 bd 11 43 1a 3e 94 80 a8 3d 3d 41 25 3d
       -0.060226884 0.15064646 0.08227649 0.04034542
000330 6b 48 10 be b7 6e 24 3e 35 44 ad bd 55 8e ad bd
       -0.14090125 0.1605786 -0.08460275 -0.08474413
000340 a8 86 5f 3e 18 29 03 be a0 6d 90 3d 22 7f 23 bd
       0.21828711 -0.12808645 0.07052159 -0.039916165
000350 18 e8 2b 3e 02 6e c0 3d 67 ff 00 be 0f aa 15 3e
       0.16787755 0.09395982 -0.12597428 0.14615653
000360 64 7a 05 3e ca 48 20 bd 10 83 d6 3b 48 4c a7 bc
       0.1303497 -0.039131917 0.0065463856 -0.020422116
000370 73 cd 2e 3d 95 45 d4 3d 2c 27 ac 3c b2 8c 2e be
       0.0426764 0.10364834 0.021014772 -0.17045859
000380 6f 25 53 3e 77 ca 99 3e 34 69 03 bc 5b 88 4b 3b
       0.20619749 0.3003728 -0.008020688 0.0031056616
000390 26 04 ac 3d 6b d3 b3 3d ea 22 7f 3c b3 7d b7 bd
       0.08399229 0.08780559 0.015572289 -0.08959522
0003a0 54 24 c5 3d 1b ac 96 3c eb dd 15 be 41 86 c4 bc
       0.0962607 0.018392613 -0.14635436 -0.023989799
0003b0 72 23 4d 3e 61 fd 15 3e 32 f7 87 3e 0f 76 f3 3c
       0.20033053 0.14647438 0.26555783 0.02971938
0003c0 fc a0 cf 3c a2 d4 ce bd 2d f1 ad bd 0e 18 ac bd
       0.025345318 -0.1009915 -0.08493266 -0.084030256
0003d0 6e a4 c4 bd 72 ee 3f be ac 76 d7 bd 9d ec 29 be
       -0.09601675 -0.18743303 -0.10520682 -0.16594167
0003e0 c1 b5 a4 3d d0 ec 01 be 3c 14 3c 3d 5b 92 d6 3d
       0.08042479 -0.12687993 0.045917735 0.10477134
0003f0 31 22 ad bc 7c bc c1 bd 3f e4 80 bd 9b 18 3a bd
       -0.021134468 -0.09459779 -0.062935345 -0.04543362
