models/lstm_model_quantized.tflite (tflite, 81336 bytes, 12 tensors)

sequential/dense/MatMul;sequential/dense/Relu;sequential/dense/BiasAdd f2 [32]
0	0x33e7	0.247
1	0xb004	-0.1255
2	0xb635	-0.388
3	0x3909	0.6294
4	0x2992	0.04352
5	0xbc85	-1.13
6	0x3d16	1.271
7	0xbaf4	-0.869
8	0xae00	-0.09375
9	0x34a9	0.2913
10	0xb938	-0.6523
11	0x3e7f	1.624
12	0x3f36	1.803
13	0xba4f	-0.7886
14	0xbc95	-1.1455
15	0x3ab8	0.84
16	0x403b	2.115
17	0x3c55	1.083
18	0x35a6	0.353
19	0xb948	-0.66
20	0x3237	0.1942
21	0xb76f	-0.4646
22	0xb8ab	-0.5835
23	0x3bd4	0.9785
24	0x3c32	1.049
25	0x3d00	1.25
26	0x3520	0.3203
27	0x1b42	0.003544
28	0x358f	0.3474
29	0x342c	0.2607
30	0x3e52	1.58
31	0x3072	0.1389

sequential/batch_normalization_1/batchnorm/mul_1;sequential/batch_normalization_1/batchnorm/add_1;sequential/dense/MatMul;sequential/dense/Relu;sequential/dense/BiasAdd f2 [32, 32]
0	0x358a	0.3462
1	0x3124	0.1606
2	0xb58e	-0.3472
3	0x381c	0.5137
4	0xb56d	-0.339
5	0xb43c	-0.2646
6	0xb963	-0.6733
7	0x3983	0.689
8	0x33e4	0.2466
9	0xb8f1	-0.6177
10	0x377e	0.4683
11	0x2f4e	0.11414
12	0xb850	-0.539
13	0x3319	0.2218
14	0xb7b7	-0.4822
15	0xb8cb	-0.599
16	0xb6eb	-0.4324
17	0x379b	0.4753
18	0x3536	0.3257
19	0xb3e8	-0.2471
20	0x26b7	0.02623
21	0x387c	0.5605
22	0xb146	-0.1648
23	0x38a1	0.5786
24	0x342b	0.2605
25	0x386a	0.552
26	0xb4c2	-0.2974
27	0xb4a5	-0.2903
28	0xb8e4	-0.6113
29	0x3be0	0.9844
30	0x398c	0.6934
31	0xb192	-0.1741
32	0x2f71	0.1163
33	0xb952	-0.665
34	0x3901	0.6255
35	0xb745	-0.4543
36	0x3253	0.1976
37	0xb4f5	-0.3098
38	0x37b1	0.4807
39	0x3c5e	1.092
40	0xb0a9	-0.1456
41	0xb759	-0.4592
42	0xb30f	-0.2206
43	0x3ad6	0.8545
44	0xadf5	-0.0931
45	0xb8b3	-0.5874
46	0x247c	0.01752
47	0x3957	0.6675
48	0xb432	-0.2622
49	0x3852	0.54
50	0xb365	-0.2311
51	0x35a4	0.3525
52	0x2f26	0.1117
53	0x3bd5	0.979
54	0xb480	-0.2812
55	0xb2fa	-0.218
56	0xb5cf	-0.363
57	0x2829	0.0325
58	0xb901	-0.6255
59	0x3685	0.4075
60	0xb1de	-0.1833
61	0x3c94	1.145
62	0x32de	0.2146
63	0xa6b9	-0.02626
64	0x388b	0.568
65	0xb042	-0.133
66	0xbb67	-0.9253
67	0x3036	0.1316
68	0x33c1	0.2423
69	0x36f5	0.4348
70	0xb140	-0.1641
71	0x381f	0.515
72	0x38d0	0.6016
73	0x387d	0.561
74	0xbaac	-0.834
75	0x3911	0.6333
76	0xb523	-0.321
77	0x3a68	0.801
78	0x2e3e	0.09753
79	0x3806	0.503
80	0x3560	0.336
81	0xb491	-0.2854
82	0x312e	0.1619
83	0xb828	-0.5195
84	0x2db8	0.08936
85	0xbb39	-0.903
86	0x38ce	0.6006
87	0xb6ab	-0.4167
88	0x3564	0.337
89	0x35bf	0.3591
90	0x3a0e	0.757
91	0x33ea	0.2473
92	0xb6a0	-0.414
93	0xb76b	-0.4636
94	0x3278	0.2021
95	0x2e10	0.0947
96	0x39ab	0.7085
97	0xb790	-0.4727
98	0x317b	0.1713
99	0xb696	-0.4116
100	0xb8ba	-0.591
101	0xb499	-0.2874
102	0xb135	-0.1627
103	0x3097	0.1434
104	0x232c	0.01401
105	0x33a5	0.2389
106	0x2c85	0.0706
107	0xb8a2	-0.579
108	0xb516	-0.3179
109	0x3ae3	0.861
110	0xb9d4	-0.7285
111	0x39c2	0.7197
112	0xaf64	-0.1155
113	0xb0eb	-0.1537
114	0xb4c3	-0.2976
115	0xb021	-0.129
116	0x3c3a	1.057
117	0xb171	-0.17
118	0xaf31	-0.11237
119	0xb865	-0.5493
120	0x39e3	0.736
121	0x3178	0.1709
122	0x2705	0.02742
123	0x3991	0.696
124	0xaf96	-0.1185
125	0xa682	-0.02542
126	0xbacd	-0.85
127	0xb32e	-0.2244
128	0x266f	0.02513
129	0xb624	-0.3838
130	0x36bd	0.4211
131	0xb870	-0.5547
132	0x3ad3	0.853
133	0xb0ba	-0.1477
134	0x3825	0.518
135	0x3955	0.6665
136	0x38c4	0.5957
137	0x34aa	0.2915
138	0x2b7b	0.05844
139	0xb95b	-0.6694
140	0xae1b	-0.0954
141	0xb932	-0.6494
142	0xb93b	-0.654
143	0xa930	-0.04053
144	0xa5ef	-0.02318
145	0x37d0	0.4883
146	0x37b9	0.4827
147	0x34c1	0.297
148	0x39a2	0.704
149	0xb2b9	-0.2101
150	0x3969	0.6763
151	0x2d5d	0.0838
152	0xb0e7	-0.1532
153	0x186a	0.002155
154	0xbc8e	-1.139
155	0xb5d2	-0.3638
156	0x2c28	0.06494
157	0xba31	-0.774
158	0x3958	0.668
159	0xabe6	-0.0617
160	0xbc96	-1.146
161	0x3c58	1.086
162	0x2dd2	0.09094
163	0xac34	-0.0657
164	0x3c4c	1.074
165	0x3948	0.66
166	0x36e1	0.43
167	0xba55	-0.7915
168	0xb929	-0.645
169	0xba09	-0.7544
170	0x31af	0.1776
171	0x3da7	1.413
172	0xaa51	-0.04935
173	0x2dbb	0.08954
174	0x39a1	0.7036
175	0x39c9	0.723
176	0x1c52	0.00422
177	0xbb73	-0.931
178	0x3026	0.1296
179	0x32f8	0.2178
180	0xbb82	-0.9385
181	0x2974	0.0426
182	0xbad7	-0.855
183	0x35ed	0.3704
184	0xaffa	-0.12463
185	0x3adc	0.8574
186	0x27a8	0.0299
187	0xb643	-0.3914
188	0xb7fc	-0.499
189	0xb503	-0.3132
190	0xb66a	-0.401
191	0x36ed	0.4329
192	0x25e8	0.02307
193	0xb27b	-0.2025
194	0x3ccb	1.198
195	0x36f8	0.4355
196	0xb94d	-0.6626
197	0x3440	0.2656
198	0x3574	0.3408
199	0xb980	-0.6875
200	0xb85b	-0.5444
201	0x38b4	0.588
202	0xa1f8	-0.01166
203	0xb575	-0.341
204	0xb569	-0.3381
205	0x3662	0.399
206	0xb6cd	-0.425
207	0x3078	0.1396
208	0x33c7	0.243
209	0xb9db	-0.732
210	0xb969	-0.6763
211	0x3c58	1.086
212	0x3988	0.6914
213	0xb704	-0.4385
214	0x3407	0.2517
215	0x3137	0.163
216	0xb551	-0.3323
217	0x2bb1	0.0601
218	0x347c	0.2803
219	0x3728	0.4473
220	0xbaa1	-0.8286
221	0xbc06	-1.006
222	0x358e	0.3472
223	0x3b3a	0.9033
224	0xba17	-0.761
225	0x394f	0.6636
226	0x345c	0.2725
227	0xb753	-0.4578
228	0x3b2e	0.8975
229	0x3a4f	0.7886
230	0x3946	0.659
231	0xb921	-0.641
232	0xbc44	-1.066
233	0xb048	-0.1338
234	0xb950	-0.664
235	0xb82c	-0.5215
236	0xba5c	-0.795
237	0x36eb	0.4324
238	0x3a37	0.777
239	0xb07a	-0.1399
240	0xb029	-0.13
241	0xbb65	-0.9243
242	0xacba	-0.07385
243	0xb531	-0.3245
244	0xb7d1	-0.4885
245	0x36d6	0.4272
246	0xbac2	-0.8447
247	0xba6b	-0.8022
248	0xad69	-0.08453
249	0x3c66	1.1
250	0xb8d9	-0.606
251	0x2f06	0.10974
252	0xbc6f	-1.108
253	0x36ee	0.433
254	0x33ae	0.24
255	0xbc5c	-1.09

sequential/batch_normalization/batchnorm/sub f2 [64]
0	0xb1b0	-0.1777
1	0xb2df	-0.2147
2	0xb167	-0.1688
3	0x2bc5	0.0607
4	0xb5c9	-0.3616
5	0x3774	0.4658
6	0x2c82	0.07043
7	0x299c	0.04382
8	0x3601	0.3752
9	0x3415	0.2551
10	0xb802	-0.501
11	0x3980	0.6875
12	0x2cfd	0.07794
13	0x3113	0.1586
14	0x30c6	0.1492
15	0xabf2	-0.06207
16	0x3540	0.3281
17	0x346d	0.2766
18	0xb2f3	-0.2172
19	0x2c82	0.07043
20	0xb0b7	-0.1473
21	0xafea	-0.12366
22	0xb75c	-0.46
23	0xaebb	-0.10516
24	0xb50d	-0.3157
25	0xa18b	-0.010826
26	0xbaa4	-0.83
27	0x2da5	0.0882
28	0xb145	-0.1647
29	0xb68e	-0.4097
30	0x3012	0.1272
31	0xb5f1	-0.3713
32	0x2d27	0.0805
33	0x3797	0.4744
34	0xa9cb	-0.04526
35	0x35a2	0.352
36	0xb0b1	-0.1466
37	0x317d	0.1715
38	0x30fd	0.1559
39	0x34b3	0.2937
40	0xaf36	-0.1127
41	0x2fee	0.1239
42	0x2c20	0.06445
43	0xb4b9	-0.2952
44	0xb513	-0.3171
45	0x2d62	0.0841
46	0xb339	-0.2257
47	0x366c	0.4014
48	0xae28	-0.0962
49	0xb7fd	-0.4993
50	0xae34	-0.0969
51	0x3684	0.4072
52	0xad63	-0.08417
53	0x3371	0.2325
54	0x31ea	0.1848
55	0xa82b	-0.03256
56	0xae7d	-0.1014
57	0xaf08	-0.10986
58	0x21c6	0.01128
59	0xb76a	-0.4634
60	0xb6fb	-0.4363
61	0x2c68	0.06885
62	0xb5fa	-0.3735
63	0x3764	0.462

sequential/batch_normalization/batchnorm/mul f2 [64]
0	0x4dad	22.7
1	0x4ae1	13.76
2	0x4d4a	21.16
3	0x45ed	5.926
4	0x4cc8	19.12
5	0x4aee	13.86
6	0x4cd3	19.3
7	0x4cf0	19.75
8	0x4d2d	20.7
9	0x4c3b	16.92
10	0x4c9c	18.44
11	0x4ea3	26.55
12	0x4a15	12.164
13	0x4857	8.68
14	0x4d27	20.61
15	0x450c	5.047
16	0x4bd1	15.63
17	0x4980	11.0
18	0x4ee2	27.53
19	0x4e39	24.89
20	0x4b78	14.94
21	0x4b76	14.92
22	0x4ef1	27.77
23	0x4d77	21.86
24	0x4cc3	19.05
25	0x4484	4.516
26	0x4ab4	13.41
27	0x4c5d	17.45
28	0x4c55	17.33
29	0x4d6c	21.69
30	0x4e24	24.56
31	0x4967	10.805
32	0x4c79	17.89
33	0x4bc4	15.53
34	0x4bf4	15.91
35	0x4e5b	25.42
36	0x4d73	21.8
37	0x4c23	16.55
38	0x4a86	13.05
39	0x4c77	17.86
40	0x4cf0	19.75
41	0x4606	6.023
42	0x44b3	4.7
43	0x4dcf	23.23
44	0x4b48	14.56
45	0x474b	7.293
46	0x4bf3	15.9
47	0x4968	10.81
48	0x491a	10.2
49	0x4c57	17.36
50	0x4bca	15.58
51	0x4e0e	24.22
52	0x4dc6	23.1
53	0x4a46	12.55
54	0x4e00	24.0
55	0x4c04	16.06
56	0x4ee2	27.53
57	0x4e41	25.02
58	0x49d7	11.68
59	0x4d45	21.08
60	0x4e64	25.56
61	0x4619	6.098
62	0x4e91	26.27
63	0x4e46	25.1

sequential/lstm/Read_2/ReadVariableOp f2 [256]
0	0xa482	-0.01761
1	0x9d74	-0.005325
2	0x28a4	0.03625
3	0x23f0	0.0155
4	0x2afd	0.0546
5	0x26f8	0.02722
6	0x2593	0.02177
7	0x291e	0.03998
8	0x2b45	0.0568
9	0xa057	-0.00848
10	0x28b4	0.03674
11	0xac0c	-0.06323
12	0x2972	0.04254
13	0x26e5	0.02693
14	0xa6f1	-0.02711
15	0x2543	0.02055
16	0xa2f5	-0.01359
17	0xa854	-0.0338
18	0x2217	0.011894
19	0xa6f7	-0.0272
20	0x8fe0	-0.0004807
21	0x22dc	0.0134
22	0xa9f2	-0.04645
23	0x9fc8	-0.0076
24	0x9a24	-0.002998
25	0x2547	0.02061
26	0x25ff	0.02342
27	0x0afe	0.0002134
28	0xa4e6	-0.01913
29	0xa19f	-0.01098
30	0xa02a	-0.00813
31	0x278a	0.02945
32	0x02bd	4.18e-05
33	0x2506	0.01962
34	0xa823	-0.03232
35	0xa8bf	-0.03708
36	0xa0cb	-0.00936
37	0x869b	-0.0001008
38	0xa205	-0.01176
39	0x295b	0.04184
40	0x1d48	0.005157
41	0x1abd	0.00329
42	0x21ad	0.011086
43	0xa9f8	-0.04663
44	0x2555	0.02083
45	0x2721	0.02785
46	0x208a	0.008865
47	0x1f62	0.00721
48	0x1660	0.001556
49	0x244b	0.01677
50	0xa3bd	-0.015114
51	0xa641	-0.02443
52	0x2824	0.03235
53	0x2aa5	0.0519
54	0xa300	-0.01367
55	0x1fff	0.00781
56	0xabe2	-0.06158
57	0x280c	0.03162
58	0x2c2b	0.0651
59	0x2846	0.0334
60	0x2bd5	0.0612
61	0x1d40	0.005127
62	0x2520	0.02002
63	0x9f30	-0.00702
64	0x3bbd	0.9673
65	0x3c0b	1.011
66	0x3bce	0.9756
67	0x3c1e	1.029
68	0x3bf9	0.9966
69	0x3c07	1.007
70	0x3b95	0.9478
71	0x3c02	1.002
72	0x3c07	1.007
73	0x3bb8	0.965
74	0x3bd4	0.9785
75	0x3be2	0.9854
76	0x3c1f	1.03
77	0x3c08	1.008
78	0x3bbf	0.9683
79	0x3c2a	1.041
80	0x3bde	0.9834
81	0x3c03	1.003
82	0x3bad	0.9595
83	0x3c00	1.0
84	0x3be6	0.9873
85	0x3bd1	0.977
86	0x3b81	0.938
87	0x3bb8	0.965
88	0x3bde	0.9834
89	0x3c21	1.032
90	0x3c36	1.053
91	0x3bc5	0.971
92	0x3bbf	0.9683
93	0x3bdc	0.9824
94	0x3bca	0.9736
95	0x3c02	1.002
96	0x3bd0	0.9766
97	0x3bcd	0.975
98	0x3bd1	0.977
99	0x3b6d	0.928
100	0x3c28	1.039
101	0x3ba0	0.953
102	0x3c0d	1.013
103	0x3c06	1.006
104	0x3b9b	0.9507
105	0x3c18	1.023
106	0x3c23	1.034
107	0x3bec	0.99
108	0x3bf5	0.9946
109	0x3c26	1.037
110	0x3bd9	0.981
111	0x3c1c	1.027
112	0x3c2b	1.042
113	0x3bdb	0.982
114	0x3c05	1.005
115	0x3b8a	0.9424
116	0x3b78	0.9336
117	0x3bd3	0.978
118	0x3bad	0.9595
119	0x3c04	1.004
120	0x3b9d	0.9517
121	0x3c02	1.002
122	0x3bc8	0.9727
123	0x3c0b	1.011
124	0x3b8f	0.945
125	0x3c17	1.022
126	0x3bcb	0.974
127	0x3b83	0.939
128	0x1a47	0.003065
129	0x26cb	0.02654
130	0xa2b8	-0.01312
131	0x24be	0.01852
132	0x26e1	0.02687
133	0x285f	0.03415
134	0x2122	0.010025
135	0x1c9a	0.004494
136	0xa829	-0.0325
137	0xa4e3	-0.01909
138	0x281e	0.03217
139	0xa5e0	-0.02295
140	0x1303	0.000856
141	0x1f23	0.00697
142	0xa507	-0.01964
143	0x2805	0.0314
144	0x25f5	0.02327
145	0xa5ff	-0.02342
146	0x1e43	0.006115
147	0x21f1	0.011604
148	0x272d	0.02803
149	0x229b	0.0129
150	0x23af	0.01501
151	0x2610	0.02368
152	0x24d4	0.01886
153	0xa6a9	-0.02602
154	0x2a8e	0.0512
155	0x218e	0.01085
156	0x2233	0.01211
157	0x24cc	0.01874
158	0x2440	0.0166
159	0x9a34	-0.003029
160	0x100f	0.0004954
161	0x2294	0.01285
162	0xa86a	-0.0345
163	0xa5e9	-0.02309
164	0x291e	0.03998
165	0x26ca	0.02652
166	0xa4a1	-0.01808
167	0xa11a	-0.009964
168	0x288d	0.03555
169	0xa731	-0.02809
170	0x23f2	0.01552
171	0x240c	0.01581
172	0x2495	0.0179
173	0x8263	-3.64e-05
174	0x2349	0.01423
175	0x24b0	0.01831
176	0x22c7	0.01324
177	0xa3d2	-0.015274
178	0xaa54	-0.04944
179	0xa1c4	-0.01126
180	0x9c8d	-0.004444
181	0xa1e6	-0.01152
182	0x9590	-0.001358
183	0xa473	-0.01738
184	0x8fc6	-0.0004745
185	0x98da	-0.002369
186	0x222c	0.012054
187	0x25e5	0.02303
188	0x0d28	0.0003147
189	0x1c59	0.004246
190	0x2500	0.01953
191	0xa40f	-0.01585
192	0xa50c	-0.01971
193	0xa597	-0.02184
194	0x2b49	0.05692
195	0x239f	0.014885
196	0x2b54	0.05725
197	0x2646	0.0245
198	0x275e	0.02878
199	0x2957	0.04172
200	0x2be4	0.06165
201	0x9fd9	-0.007664
202	0x2875	0.03482
203	0xabbd	-0.06046
204	0x282c	0.0326
205	0x272d	0.02803
206	0xa596	-0.02182
207	0x230d	0.01377
208	0x9aed	-0.003382
209	0xa82f	-0.03268
210	0x1e7c	0.006332
211	0xa6a7	-0.02599
212	0x0fef	0.0004842
213	0x215c	0.01047
214	0xaa5c	-0.04968
215	0x9f0a	-0.006874
216	0x1758	0.001793
217	0x219b	0.01095
218	0x2839	0.033
219	0x9937	-0.002546
220	0xa697	-0.02574
221	0xa3b3	-0.01504
222	0xa33e	-0.014145
223	0x2654	0.02472
224	0x1840	0.002075
225	0x2065	0.00858
226	0xa45f	-0.01707
227	0xa956	-0.0417
228	0x2193	0.01089
229	0xa2eb	-0.01351
230	0xa445	-0.01668
231	0x2a03	0.04697
232	0x1c34	0.004105
233	0x97f6	-0.001944
234	0x267d	0.02534
235	0xaa0d	-0.04727
236	0x252d	0.02022
237	0x2673	0.02519
238	0x0468	6.723e-05
239	0x22bd	0.01316
240	0x14c5	0.001164
241	0x2403	0.01567
242	0x9c21	-0.004032
243	0xa64e	-0.02463
244	0x26a0	0.02588
245	0x27fb	0.03117
246	0xa41a	-0.01602
247	0xa3d3	-0.01528
248	0xabc4	-0.06067
249	0x293c	0.0409
250	0x2b38	0.0564
251	0x2851	0.03372
252	0x2b63	0.0577
253	0x2390	0.01477
254	0x2617	0.02379
255	0xa11f	-0.01

sequential/lstm_1/Read_2/ReadVariableOp f2 [128]
0	0x25e1	0.02296
1	0xaf5f	-0.1152
2	0xaa30	-0.04834
3	0x257f	0.02147
4	0x2af7	0.0544
5	0x29b9	0.0447
6	0xa119	-0.00996
7	0x2427	0.01622
8	0x2d6c	0.0847
9	0x27fd	0.0312
10	0x25fa	0.02335
11	0x1fe5	0.00771
12	0xa827	-0.03244
13	0x2b93	0.05917
14	0x2d96	0.0873
15	0x21a6	0.01103
16	0x29a0	0.04395
17	0x25c3	0.0225
18	0x1544	0.001286
19	0xa103	-0.00979
20	0x27b7	0.03014
21	0xaf7b	-0.1169
22	0x2d23	0.08026
23	0x2c31	0.0655
24	0x2c89	0.07086
25	0xa3d0	-0.01526
26	0x9a6a	-0.003132
27	0x2c28	0.06494
28	0x240f	0.01585
29	0xac0c	-0.06323
30	0x2c7f	0.07025
31	0x26e0	0.02686
32	0x3be4	0.9863
33	0x3b82	0.9385
34	0x3bcd	0.975
35	0x3c02	1.002
36	0x3c0e	1.014
37	0x3c46	1.068
38	0x3c32	1.049
39	0x3c29	1.04
40	0x3c01	1.001
41	0x3c41	1.063
42	0x3c1a	1.025
43	0x3ba3	0.9546
44	0x3c06	1.006
45	0x3c1e	1.029
46	0x3c2e	1.045
47	0x3be3	0.986
48	0x3c0f	1.015
49	0x3c25	1.036
50	0x3bd2	0.9775
51	0x3b9a	0.95
52	0x3c15	1.0205
53	0x3ba0	0.953
54	0x3bca	0.9736
55	0x3c04	1.004
56	0x3c0b	1.011
57	0x3c0c	1.012
58	0x3c17	1.022
59	0x3c22	1.033
60	0x3bee	0.991
61	0x3b8c	0.9434
62	0x3c30	1.047
63	0x3b94	0.9473
64	0x1e5a	0.006203
65	0x2ba2	0.05963
66	0xaa2e	-0.04828
67	0x2257	0.01238
68	0x2b57	0.05734
69	0xa4ed	-0.01924
70	0xa1ff	-0.01171
71	0x26c3	0.02641
72	0x2b1a	0.05548
73	0x149e	0.001127
74	0x1a22	0.002995
75	0x2ce3	0.07635
76	0xa669	-0.02504
77	0x23ba	0.01509
78	0xa3cd	-0.015236
79	0x2c30	0.0654
80	0xa1b7	-0.01116
81	0xa1e3	-0.0115
82	0x26f7	0.0272
83	0xa96c	-0.04236
84	0x1d93	0.005444
85	0x26c2	0.0264
86	0x265c	0.02484
87	0xa95e	-0.04193
88	0xa22e	-0.01207
89	0x280b	0.0316
90	0xa7f7	-0.03111
91	0x98d3	-0.002356
92	0x964d	-0.001538
93	0x13b7	0.0009418
94	0xa7de	-0.03073
95	0xad18	-0.0796
96	0x2e1b	0.0954
97	0xa828	-0.03247
98	0x9ca9	-0.00455
99	0x2ab1	0.05228
100	0x18b0	0.002289
101	0x2b7a	0.0584
102	0x2cdc	0.0759
103	0x2bac	0.05994
104	0x3069	0.1378
105	0x2d3d	0.08185
106	0x2ae6	0.0539
107	0x29c3	0.045
108	0x2072	0.00868
109	0x259c	0.02191
110	0x303f	0.1327
111	0x1f64	0.007217
112	0x2c68	0.06885
113	0x294f	0.04147
114	0x2f7f	0.1171
115	0x2717	0.0277
116	0x2cc4	0.07446
117	0xa980	-0.04297
118	0x2d90	0.0869
119	0x2a62	0.04987
120	0x2e4d	0.09845
121	0x2795	0.02962
122	0x24bf	0.01854
123	0x2c3b	0.0661
124	0xa604	-0.0235
125	0xab26	-0.05585
126	0x2c51	0.06744
127	0x2d0a	0.07874

sequential/dense_1/BiasAdd/ReadVariableOp f2 [7]
0	0x27c2	0.0303
1	0x2de3	0.092
2	0x2a0c	0.04724
3	0xae45	-0.09796
4	0xaf9e	-0.119
5	0x2a33	0.04843
6	0xaa00	-0.04688

sequential/dense_1/MatMul f2 [7, 32]
0	0x331d	0.2223
1	0xb4c2	-0.2974
2	0xb43c	-0.2646
3	0xb1d2	-0.1819
4	0xb693	-0.411
5	0x35b3	0.3562
6	0x2c95	0.0716
7	0x3594	0.3486
8	0xac35	-0.06573
9	0x2f62	0.11536
10	0x1e44	0.00612
11	0xb7d5	-0.4895
12	0xb1b8	-0.1787
13	0xb5a3	-0.3523
14	0x2fd5	0.1224
15	0x3450	0.2695
16	0xaf9b	-0.11884
17	0xb079	-0.1398
18	0x34aa	0.2915
19	0x31b7	0.1786
20	0xa534	-0.02032
21	0x21f8	0.01166
22	0x30f0	0.1543
23	0xb38b	-0.2357
24	0xaafb	-0.05453
25	0xa7d1	-0.03053
26	0x2db7	0.0893
27	0xb2d4	-0.2134
28	0x30ff	0.1561
29	0xb5da	-0.3657
30	0xb0ef	-0.1542
31	0x33de	0.2458
32	0x305d	0.1364
33	0x31f4	0.186
34	0xb35f	-0.2303
35	0xb62f	-0.3865
36	0xacc8	-0.0747
37	0x2f71	0.1163
38	0xb758	-0.459
39	0xaf05	-0.1097
40	0x2850	0.0337
41	0xb06b	-0.1381
42	0x3635	0.388
43	0x35b6	0.357
44	0xb6ed	-0.4329
45	0x336b	0.2318
46	0x33cd	0.2438
47	0x3185	0.1725
48	0xb135	-0.1627
49	0x2d98	0.0874
50	0x284f	0.03366
51	0x34a8	0.291
52	0xb5bd	-0.3586
53	0x28a9	0.0364
54	0xb4e3	-0.3054
55	0x29b8	0.04468
56	0xb424	-0.2588
57	0xb332	-0.2249
58	0xb4c5	-0.298
59	0xb3c7	-0.243
60	0x3413	0.2546
61	0xb0e0	-0.1523
62	0x302d	0.1305
63	0xb64d	-0.3938
64	0xae6e	-0.10046
65	0x97f2	-0.00194
66	0xb33f	-0.2264
67	0x2cf3	0.07733
68	0xb5bc	-0.3584
69	0x364f	0.3943
70	0xb4f0	-0.3086
71	0x35d4	0.3643
72	0xb69c	-0.413
73	0xb2ed	-0.2164
74	0x345d	0.2727
75	0xb636	-0.3882
76	0xb107	-0.1571
77	0xb741	-0.4534
78	0x3468	0.2754
79	0xafe5	-0.12335
80	0xb45f	-0.2732
81	0xb919	-0.637
82	0x19dd	0.002863
83	0x34b2	0.2935
84	0x324d	0.1969
85	0xb15c	-0.1675
86	0x34e0	0.3047
87	0xb1ec	-0.185
88	0xb492	-0.2856
89	0x2c08	0.063
90	0xb0d6	-0.1511
91	0xaff4	-0.12427
92	0xad73	-0.08514
93	0xa937	-0.04074
94	0xb48c	-0.2842
95	0x241f	0.0161
96	0xac04	-0.06274
97	0xa023	-0.00808
98	0xb3b5	-0.2408
99	0xb6a5	-0.4153
100	0x0ddb	0.0003574
101	0xb416	-0.2554
102	0x30ff	0.1561
103	0xb5e8	-0.3691
104	0xb50e	-0.316
105	0xb099	-0.1437
106	0xb1be	-0.1794
107	0x35e8	0.3691
108	0x3654	0.3955
109	0xb588	-0.3457
110	0x327b	0.2025
111	0xb6b9	-0.4202
112	0x367b	0.405
113	0x1661	0.001557
114	0x35cf	0.363
115	0xb72f	-0.449
116	0xa3bd	-0.015114
117	0xb1a2	-0.176
118	0xb0e5	-0.153
119	0xb89d	-0.5767
120	0xb44b	-0.2683
121	0x33db	0.2455
122	0xb128	-0.1611
123	0x2d4c	0.08276
124	0xacf1	-0.0772
125	0xb6c0	-0.4219
126	0x361c	0.3818
127	0xb21d	-0.191
128	0xab01	-0.05472
129	0x2c27	0.0649
130	0xb0ce	-0.1501
131	0x354f	0.3318
132	0xb3f3	-0.2484
133	0xb048	-0.1338
134	0x364f	0.3943
135	0xb1bb	-0.1791
136	0x30d2	0.1506
137	0xb080	-0.1406
138	0xb28a	-0.2043
139	0xa804	-0.03137
140	0xb1f7	-0.1864
141	0xb635	-0.388
142	0x3463	0.2742
143	0xb74e	-0.4565
144	0x9c97	-0.004482
145	0xa2d0	-0.013306
146	0xaf25	-0.11163
147	0xac62	-0.0685
148	0x3004	0.1255
149	0xb1a5	-0.1764
150	0xb1d9	-0.1827
151	0xb54c	-0.331
152	0x3192	0.1741
153	0xb192	-0.1741
154	0xb66b	-0.4011
155	0x3661	0.3987
156	0x33f7	0.2489
157	0x347d	0.2805
158	0x31f6	0.1863
159	0x301c	0.1284
160	0xb317	-0.2216
161	0xb79c	-0.4756
162	0xb24f	-0.1971
163	0x2d0b	0.0788
164	0xaed3	-0.1066
165	0x2c34	0.0657
166	0xb470	-0.2773
167	0xb76f	-0.4646
168	0xb4f1	-0.3088
169	0xb5e6	-0.3687
170	0x34ba	0.2954
171	0x3761	0.4612
172	0xb49d	-0.2883
173	0xb0bd	-0.1481
174	0x31df	0.1835
175	0x2b45	0.0568
176	0xaefe	-0.10925
177	0x35fb	0.3738
178	0x24b7	0.01842
179	0xb21b	-0.1908
180	0x229e	0.012924
181	0xafc7	-0.1215
182	0x3506	0.314
183	0x333f	0.2264
184	0x34b6	0.2944
185	0x2db9	0.0894
186	0xb506	-0.314
187	0xb5a9	-0.3538
188	0xb163	-0.1683
189	0x323d	0.195
190	0xb761	-0.4612
191	0xb74e	-0.4565
192	0xb600	-0.375
193	0xb14e	-0.1658
194	0x34ca	0.2993
195	0x35fb	0.3738
196	0x31ae	0.1775
197	0xb515	-0.3176
198	0xae98	-0.103
199	0xb3b1	-0.2404
200	0x3500	0.3125
201	0xb17b	-0.1713
202	0xb575	-0.341
203	0x29e2	0.04596
204	0xb211	-0.1896
205	0x3331	0.2247
206	0x353b	0.327
207	0xb565	-0.3372
208	0xb640	-0.3906
209	0x30a6	0.1453
210	0x35b4	0.3564
211	0xb4c4	-0.2979
212	0xb40d	-0.2532
213	0x34af	0.2927
214	0x3640	0.3906
215	0x2790	0.02954
216	0x2fb1	0.1202
217	0x34a7	0.2908
218	0x30e7	0.1532
219	0xaf8d	-0.118
220	0xb4a2	-0.2896
221	0xb23e	-0.1951
222	0xab0f	-0.05515
223	0xb426	-0.2593

while/MatMul_1 f2 [256, 64]
0	0xa628	-0.02405
1	0x2c84	0.07056
2	0xa4c0	-0.01855
3	0x2da8	0.0884
4	0x2afc	0.05457
5	0xa0ce	-0.009384
6	0x28fb	0.0389
7	0x2029	0.008125
8	0xa952	-0.04156
9	0x2deb	0.09247
10	0xafa5	-0.11945
11	0x290d	0.03946
12	0xae19	-0.0953
13	0x2a22	0.0479
14	0xaa7c	-0.05066
15	0x2216	0.01189
16	0x9f20	-0.006958
17	0x2733	0.02812
18	0xab9d	-0.05948
19	0xaaed	-0.0541
20	0xa9d8	-0.04565
21	0x24f9	0.01942
22	0xada2	-0.088
23	0x2818	0.03198
24	0xa77f	-0.02928
25	0xafc1	-0.12115
26	0xa623	-0.02397
27	0xa954	-0.04163
28	0xa6b5	-0.0262
29	0xae02	-0.0939
30	0x2a5b	0.04965
31	0x92f6	-0.0008497
32	0x27be	0.03024
33	0xa346	-0.014206
34	0xaa7b	-0.05063
35	0xae5d	-0.0994
36	0x2932	0.0406
37	0x301b	0.1283
38	0xa4ec	-0.01923
39	0x2a4b	0.04916
40	0x2c37	0.06586
41	0xab9a	-0.0594
42	0xad6f	-0.0849
43	0xa591	-0.02174
44	0xaa00	-0.04688
45	0xa83d	-0.0331
46	0x30b5	0.1471
47	0x2d42	0.08215
48	0xa98b	-0.0433
49	0x2931	0.04056
50	0x22b8	0.01312
51	0x1fc8	0.0076
52	0xa8f9	-0.03885
53	0x2db4	0.0891
54	0x2ec5	0.1058
55	0x2b5f	0.0576
56	0xa7f3	-0.03105
57	0x2e49	0.0982
58	0x17c6	0.001898
59	0x2711	0.0276
60	0xa4cb	-0.01872
61	0x301c	0.1284
62	0xacfa	-0.07776
63	0x24ff	0.01952
64	0xabe3	-0.0616
65	0x2cad	0.07306
66	0x2ccf	0.07513
67	0x208c	0.00888
68	0x1908	0.002457
69	0x23d0	0.01526
70	0xa9cd	-0.04532
71	0xab6c	-0.05798
72	0xa603	-0.02348
73	0x2ec6	0.10583
74	0x2997	0.04367
75	0x9d0c	-0.00493
76	0xad1b	-0.0798
77	0x2d3f	0.082
78	0x20bb	0.00924
79	0x2a65	0.04996
80	0x21ef	0.01159
81	0xac6c	-0.0691
82	0x2a66	0.05
83	0xac3e	-0.0663
84	0x2c29	0.065
85	0x2287	0.01275
86	0x27f1	0.03102
87	0x290e	0.0395
88	0xad94	-0.08716
89	0x2998	0.0437
90	0xaa58	-0.04956
91	0xa8fe	-0.039
92	0x2db5	0.0892
93	0x2db0	0.08887
94	0x2974	0.0426
95	0xa3d8	-0.01532
96	0xa57e	-0.02145
97	0x2f4e	0.11414
98	0xab34	-0.05627
99	0x2ce7	0.0766
100	0x29a0	0.04395
101	0x23f3	0.015526
102	0x1cc5	0.004658
103	0xa750	-0.02856
104	0x2724	0.0279
105	0x2eed	0.1082
106	0xb0d5	-0.151
107	0xa89b	-0.03598
108	0x2a8b	0.05112
109	0x2d7e	0.0858
110	0xb010	-0.127
111	0x244b	0.01677
112	0xadee	-0.09265
113	0xaeab	-0.1042
114	0xad72	-0.0851
115	0xae41	-0.0977
116	0xa808	-0.0315
117	0xab19	-0.05545
118	0x2dfd	0.09357
119	0xadd2	-0.09094
120	0xadd1	-0.0909
121	0xb179	-0.171
122	0x2aee	0.05414
123	0x30dd	0.152
124	0x0fda	0.0004792
125	0xaec4	-0.1057
126	0xac17	-0.0639
127	0xaaea	-0.05402
128	0x31cb	0.181
129	0x2fc3	0.1213
130	0x2be2	0.06158
131	0x3029	0.13
132	0xb391	-0.2365
133	0xb0d1	-0.1505
134	0xad46	-0.0824
135	0x3274	0.2017
136	0xadb8	-0.08936
137	0xb098	-0.1436
138	0xabbc	-0.06042
139	0xa46b	-0.01726
140	0x31e7	0.1844
141	0xb54c	-0.331
142	0x33b6	0.241
143	0x3110	0.1582
144	0xb02d	-0.1305
145	0x32e2	0.2151
146	0xaec9	-0.106
147	0xabbd	-0.06046
148	0xb42c	-0.2607
149	0xb4eb	-0.3074
150	0x344a	0.268
151	0xa6f1	-0.02711
152	0xa95e	-0.04193
153	0xb0ec	-0.1538
154	0xa714	-0.02765
155	0x2e49	0.0982
156	0xb266	-0.2
157	0x20d2	0.009415
158	0x2937	0.04074
159	0x2e84	0.1018
160	0xb27e	-0.2029
161	0xb474	-0.2783
162	0x314c	0.1655
163	0x2d50	0.083
164	0xb0a6	-0.1453
165	0xb438	-0.2637
166	0x2dc7	0.0903
167	0x2e78	0.1011
168	0x2514	0.01984
169	0xac2b	-0.0651
170	0x3567	0.3376
171	0xad88	-0.0864
172	0xada9	-0.08844
173	0xb28b	-0.2045
174	0xb1bc	-0.1792
175	0xb33e	-0.2263
176	0x3156	0.1667
177	0x350f	0.3162
178	0x310c	0.1577
179	0x3113	0.1586
180	0x2ce5	0.0765
181	0x3175	0.1705
182	0x2d93	0.0871
183	0x2cb1	0.0733
184	0xadee	-0.09265
185	0x3026	0.1296
186	0xb31f	-0.2225
187	0xb03e	-0.1326
188	0x3147	0.1649
189	0x358e	0.3472
190	0xab10	-0.05518
191	0x2945	0.04117
192	0xabb7	-0.06027
193	0xac38	-0.0659
194	0xac14	-0.0637
195	0x22eb	0.01351
196	0x2d77	0.0854
197	0x3092	0.1428
198	0x2f35	0.1126
199	0x2628	0.02405
200	0xabb6	-0.06024
201	0x30d2	0.1506
202	0x2d44	0.0823
203	0x292a	0.04034
204	0xb082	-0.1409
205	0x3123	0.1605
206	0xad6a	-0.0846
207	0xad6c	-0.0847
208	0x32fc	0.2183
209	0xb019	-0.128
210	0x2c83	0.0705
211	0xa91c	-0.03992
212	0x315f	0.1678
213	0x2e03	0.09393
214	0xb008	-0.126
215	0x30ad	0.1461
216	0x302c	0.1304
217	0xa902	-0.03912
218	0x1eb4	0.006546
219	0xa53a	-0.02042
220	0x2976	0.04266
221	0x2ea2	0.10364
222	0x2561	0.02101
223	0xb174	-0.1704
224	0x3299	0.2062
225	0x34ce	0.3003
226	0xa01b	-0.00802
227	0x1a5c	0.003105
228	0x2d60	0.084
229	0x2d9f	0.0878
230	0x23f9	0.01557
231	0xadbc	-0.0896
232	0x2e29	0.09625
233	0x24b5	0.01839
234	0xb0af	-0.1464
235	0xa624	-0.02399
236	0x3269	0.2003
237	0x30b0	0.1465
238	0x3440	0.2656
239	0x279c	0.02972
240	0x267d	0.02534
241	0xae77	-0.101
242	0xad70	-0.08496
243	0xad61	-0.08405
244	0xae25	-0.096
245	0xb1ff	-0.1874
246	0xaebc	-0.1052
247	0xb14f	-0.1659
248	0x2d26	0.08044
249	0xb00f	-0.1268
250	0x29e1	0.04593
251	0x2eb5	0.1048
252	0xa569	-0.02113
253	0xae0e	-0.0946
254	0xac07	-0.0629
255	0xa9d1	-0.04544

while/MatMul f2 [256, 1]
0	0x21e0	0.011475
1	0xaad3	-0.0533
2	0x31bf	0.1796
3	0xad3a	-0.08167
4	0xa4f0	-0.01929
5	0xb3b6	-0.241
6	0xb10e	-0.158
7	0xb151	-0.1661
8	0xad9c	-0.08765
9	0xacae	-0.0731
10	0x2a89	0.05106
11	0xaf07	-0.1098
12	0x3097	0.1434
13	0xa7cd	-0.03047
14	0xaab4	-0.05237
15	0xad5b	-0.0837
16	0xb3ea	-0.2473
17	0x2fc0	0.1211
18	0x2cdc	0.0759
19	0xaab9	-0.05252
20	0xafab	-0.1198
21	0xafa3	-0.1193
22	0xacd1	-0.07526
23	0xaebf	-0.1054
24	0x9c05	-0.003925
25	0x2442	0.01663
26	0x2f8f	0.1181
27	0x2e94	0.1028
28	0x258e	0.0217
29	0x2fd4	0.1223
30	0x95ac	-0.001385
31	0xad18	-0.0796
32	0xae4b	-0.0983
33	0xb1e9	-0.1847
34	0xb1d4	-0.1821
35	0x2c33	0.0656
36	0xb19c	-0.1753
37	0xa505	-0.0196
38	0x2d9c	0.08765
39	0x2b16	0.05536
40	0xa874	-0.0348
41	0xafbc	-0.12085
42	0x3134	0.1626
43	0xae43	-0.09784
44	0x2d57	0.08344
45	0xa43d	-0.01656
46	0xa92b	-0.04037
47	0xb267	-0.2001
48	0x30a1	0.1447
49	0xb36f	-0.2323
50	0xb4ce	-0.3003
51	0xaae4	-0.05383
52	0x2459	0.01698
53	0x23a0	0.01489
54	0x2d4c	0.08276
55	0xa8f6	-0.03876
56	0xac60	-0.06836
57	0xb119	-0.1593
58	0xaeba	-0.1051
59	0xb13b	-0.1635
60	0xa484	-0.01764
61	0x3327	0.2235
62	0xadad	-0.0887
63	0x2bfe	0.06244
64	0xaf40	-0.1133
65	0x32ec	0.2163
66	0xa9f9	-0.04666
67	0x3057	0.1356
68	0xb0cb	-0.1498
69	0xaa34	-0.04846
70	0xad91	-0.087
71	0xaab6	-0.05243
72	0xb0b3	-0.1469
73	0xac3f	-0.06635
74	0xacca	-0.0748
75	0xb00a	-0.1262
76	0x1b71	0.003633
77	0xb10f	-0.1581
78	0x2755	0.02864
79	0x3211	0.1896
80	0xb0ca	-0.1497
81	0x2cac	0.073
82	0x283c	0.03308
83	0xac51	-0.06744
84	0xac4a	-0.067
85	0x2e83	0.10175
86	0x2e10	0.0947
87	0xac89	-0.07086
88	0xa21b	-0.011925
89	0x313f	0.164
90	0x28d7	0.0378
91	0xa62f	-0.02415
92	0x1ded	0.005787
93	0x9ec7	-0.00662
94	0xad87	-0.08636
95	0x2de4	0.09204
96	0xb02b	-0.1302
97	0xb35e	-0.2302
98	0xb144	-0.1646
99	0xac62	-0.0685
100	0xb1a4	-0.1763
101	0x29c2	0.04498
102	0x2adb	0.05356
103	0x2e56	0.099
104	0x2457	0.01695
105	0x3209	0.1886
106	0x2116	0.00993
107	0x18e6	0.002392
108	0xac56	-0.06775
109	0xae37	-0.0971
110	0xacac	-0.073
111	0xaf97	-0.1186
112	0xb0f5	-0.1549
113	0x1e15	0.00594
114	0xb1e6	-0.1843
115	0x2d28	0.08057
116	0x2010	0.007935
117	0xa9c2	-0.04498
118	0xb01e	-0.1287
119	0xb15e	-0.1677
120	0xb089	-0.1417
121	0xb03a	-0.1321
122	0xaf52	-0.1144
123	0xb06c	-0.1382
124	0xa98b	-0.0433
125	0xadad	-0.0887
126	0xab26	-0.05585
127	0x283c	0.03308
128	0xa8b8	-0.03687
129	0xa748	-0.02844
130	0x2c11	0.06354
131	0x1be2	0.003849
132	0x3138	0.1631
133	0x322b	0.1927
134	0x318b	0.1732
135	0x2e34	0.0969
136	0xb0fa	-0.1555
137	0x2efd	0.1092
138	0x3079	0.1398
139	0xa1a1	-0.010994
140	0xb248	-0.1963
141	0x30d6	0.1511
142	0xabf3	-0.0621
143	0xb1af	-0.1776
144	0x31bd	0.1793
145	0xac74	-0.0696
146	0x2bda	0.06134
147	0x1cc2	0.004646
148	0x30ed	0.1539
149	0x30cb	0.1498
150	0x1fc1	0.007572
151	0x30c0	0.1484
152	0x2c35	0.06573
153	0x2e01	0.0938
154	0x3022	0.1292
155	0xac68	-0.06885
156	0x2f61	0.1153
157	0x2e4f	0.0986
158	0x2884	0.03528
159	0xb1a9	-0.1769
160	0x2a32	0.0484
161	0x308e	0.1423
162	0xadd1	-0.0909
163	0xa969	-0.04227
164	0x2f33	0.1125
165	0x2607	0.02354
166	0xa5af	-0.0222
167	0xae14	-0.095
168	0x30ad	0.1461
169	0x2fd3	0.12225
170	0xb240	-0.1953
171	0x2422	0.01614
172	0x3094	0.1431
173	0x27fe	0.03122
174	0x2ebe	0.10535
175	0x2dfd	0.09357
176	0xad64	-0.0842
177	0xb05c	-0.1362
178	0xadd8	-0.0913
179	0xac12	-0.0636
180	0x2a86	0.05096
181	0xb1e8	-0.1846
182	0xade1	-0.09186
183	0xa985	-0.04312
184	0x21e4	0.011505
185	0xad06	-0.0785
186	0x3336	0.2253
187	0x2f39	0.11285
188	0x9f28	-0.00699
189	0xb087	-0.1415
190	0x2b88	0.05884
191	0xa9a5	-0.0441
192	0xaf16	-0.1107
193	0x3380	0.2344
194	0xa92d	-0.04044
195	0x30e8	0.1533
196	0x289c	0.036
197	0xb1cc	-0.1812
198	0xad8f	-0.08685
199	0xb259	-0.1984
200	0xa198	-0.010925
201	0xae33	-0.09686
202	0xa4a9	-0.0182
203	0xa57f	-0.02147
204	0xb2b3	-0.2094
205	0x2ee6	0.1078
206	0x2809	0.03152
207	0x3281	0.2032
208	0xa915	-0.0397
209	0xadce	-0.0907
210	0xb108	-0.1572
211	0xac5e	-0.06824
212	0x2de5	0.0921
213	0x236e	0.01451
214	0xb09d	-0.1442
215	0xad7a	-0.0856
216	0xaefd	-0.1092
217	0x3345	0.2272
218	0x2057	0.00848
219	0xa771	-0.02907
220	0xb19c	-0.1753
221	0x297a	0.0428
222	0xb252	-0.1975
223	0xb042	-0.133
224	0xa147	-0.01031
225	0xb35a	-0.2297
226	0xab97	-0.0593
227	0xa9de	-0.04584
228	0xaca5	-0.0726
229	0xafb1	-0.1202
230	0x3073	0.139
231	0xa4a6	-0.01816
232	0x236a	0.01448
233	0x2ed7	0.1069
234	0xa993	-0.04355
235	0xaf7e	-0.11707
236	0xb10f	-0.1581
237	0x2efa	0.109
238	0xadcb	-0.0905
239	0xaa66	-0.05
240	0x2099	0.00898
241	0xb40c	-0.253
242	0xb462	-0.274
243	0x2e10	0.0947
244	0xaa33	-0.04843
245	0xb18d	-0.1735
246	0xaf84	-0.11743
247	0xb1e5	-0.1842
248	0x2f3f	0.1132
249	0x27b9	0.03017
250	0xb29f	-0.2069
251	0xb05a	-0.136
252	0xaa3a	-0.04865
253	0xab9f	-0.05954
254	0xa61f	-0.02391
255	0x2aad	0.05215

while/MatMul_14 f2 [128, 32]
0	0x225f	0.01244
1	0xa915	-0.0397
2	0xacff	-0.07806
3	0xac96	-0.07166
4	0x2f85	0.1175
5	0x9d30	-0.005066
6	0x2218	0.0119
7	0x16a9	0.001626
8	0x9ed5	-0.00667
9	0xad0c	-0.07886
10	0x27ab	0.02995
11	0xa9c8	-0.04517
12	0xaeff	-0.1093
13	0x2630	0.02417
14	0x204d	0.0084
15	0xb266	-0.2
16	0xb1bb	-0.1791
17	0x2817	0.03195
18	0x2f82	0.1173
19	0xb146	-0.1648
20	0xa955	-0.04166
21	0xa468	-0.01721
22	0xaabd	-0.05264
23	0x220e	0.011826
24	0xb4f4	-0.3096
25	0x309c	0.144
26	0xa025	-0.008095
27	0xad0e	-0.079
28	0x2885	0.0353
29	0x30d5	0.151
30	0xad09	-0.0787
31	0x2bea	0.06183
32	0xa5ca	-0.02261
33	0x2bbe	0.0605
34	0x2055	0.00846
35	0xaa7a	-0.0506
36	0x2199	0.01093
37	0x312b	0.1615
38	0xb08c	-0.1421
39	0xb105	-0.1569
40	0xb494	-0.2861
41	0x2973	0.04257
42	0xb308	-0.2197
43	0x25e4	0.02301
44	0x2101	0.00977
45	0x31cc	0.1812
46	0xb1a3	-0.1761
47	0x31be	0.1794
48	0x32ba	0.2102
49	0x2dea	0.0924
50	0x2885	0.0353
51	0x2bee	0.06195
52	0x24fb	0.01945
53	0xb158	-0.167
54	0xb44e	-0.269
55	0xa997	-0.04367
56	0x312a	0.1614
57	0x251e	0.01999
58	0xb508	-0.3145
59	0x2f26	0.1117
60	0xb1a8	-0.1768
61	0x0dd2	0.0003552
62	0x24ca	0.0187
63	0x26dd	0.02681
64	0xac8b	-0.071
65	0x2887	0.03537
66	0x3048	0.1338
67	0xb432	-0.2622
68	0xb17f	-0.1718
69	0x2ed6	0.1068
70	0x9e1c	-0.005966
71	0xb484	-0.2822
72	0xaea8	-0.104
73	0x33a1	0.2384
74	0xb314	-0.2212
75	0xac57	-0.0678
76	0x2cd2	0.0753
77	0x2cdc	0.0759
78	0xac56	-0.06775
79	0xa543	-0.02055
80	0x2cb8	0.0737
81	0x28df	0.03806
82	0xb1f8	-0.1865
83	0x3010	0.127
84	0x2f0d	0.11017
85	0xac64	-0.0686
86	0xada7	-0.0883
87	0xae95	-0.10284
88	0x3045	0.1334
89	0xad3a	-0.08167
90	0x2c2b	0.0651
91	0x274f	0.02855
92	0xadbe	-0.0897
93	0xb19c	-0.1753
94	0x248b	0.01775
95	0x30e8	0.1533
96	0x2397	0.014824
97	0xa0d3	-0.00942
98	0x3198	0.1748
99	0xa8de	-0.03802
100	0x1bce	0.00381
101	0x1f7f	0.00732
102	0xad0f	-0.07904
103	0x3225	0.192
104	0xacdd	-0.076
105	0x2db1	0.0889
106	0xad10	-0.0791
107	0x92cd	-0.00083
108	0xafc4	-0.12134
109	0xad07	-0.07855
110	0xaa88	-0.05103
111	0xa4ac	-0.01825
112	0xac1f	-0.0644
113	0x2c04	0.06274
114	0x209f	0.009026
115	0xa966	-0.04218
116	0xa667	-0.02501
117	0x310d	0.1578
118	0xb027	-0.1298
119	0x28fd	0.03897
120	0x2581	0.0215
121	0x2b38	0.0564
122	0xaa18	-0.0476
123	0xad87	-0.08636
124	0xb0ac	-0.146
125	0x348c	0.2842
126	0x2f4e	0.11414
127	0xb530	-0.3242
128	0x2739	0.02821
129	0xb017	-0.1278
130	0xa85c	-0.03406
131	0xae64	-0.09985
132	0x30b6	0.1472
133	0x28a7	0.03635
134	0x2c3a	0.06604
135	0x2cf5	0.07745
136	0xa895	-0.0358
137	0x26d7	0.02672
138	0xb19f	-0.1757
139	0x2968	0.04224
140	0x2893	0.03574
141	0x3106	0.157
142	0xb084	-0.1411
143	0x2e72	0.1007
144	0x308d	0.1422
145	0xb036	-0.1316
146	0xad5c	-0.08374
147	0xa728	-0.02795
148	0x2d0b	0.0788
149	0x2c02	0.0626
150	0x2d7e	0.0858
151	0xac6e	-0.0692
152	0x2f0f	0.1103
153	0x3215	0.1901
154	0xb3b7	-0.2411
155	0x2825	0.03238
156	0xb0ca	-0.1497
157	0x3243	0.1957
158	0x9525	-0.001256
159	0xac22	-0.0646
160	0xaf52	-0.1144
161	0x2f64	0.1155
162	0xa55c	-0.02094
163	0xb04c	-0.1343
164	0x29d8	0.04565
165	0x2073	0.00869
166	0xad95	-0.0872
167	0xad24	-0.0803
168	0x266f	0.02513
169	0xa120	-0.01001
170	0x9d5f	-0.005245
171	0x32e8	0.2158
172	0xa7db	-0.03069
173	0x2ec2	0.1056
174	0x2abf	0.0527
175	0x9d92	-0.00544
176	0xa6a2	-0.02591
177	0xab03	-0.05478
178	0x2a15	0.04752
179	0x0bdb	0.0002397
180	0x2c52	0.0675
181	0xa104	-0.009796
182	0xa40a	-0.01578
183	0xad53	-0.0832
184	0x9a15	-0.00297
185	0x30cb	0.1498
186	0x29e0	0.0459
187	0xb386	-0.2351
188	0x306d	0.1383
189	0x2fdf	0.123
190	0xb0c9	-0.1495
191	0xaff7	-0.12445
192	0x2cfe	0.078
193	0x2efa	0.109
194	0x205a	0.0085
195	0x2c99	0.07184
196	0x347c	0.2803
197	0x2816	0.03192
198	0x2c73	0.0695
199	0xb4a7	-0.2908
200	0x2e60	0.0996
201	0xb03c	-0.1323
202	0x2e4b	0.0983
203	0xafd6	-0.12244
204	0x2447	0.01671
205	0x2e05	0.09406
206	0x2f18	0.11084
207	0xae63	-0.0998
208	0xb237	-0.1942
209	0x2afb	0.05453
210	0x2d96	0.0873
211	0xb12d	-0.1617
212	0xaf60	-0.11523
213	0xacea	-0.0768
214	0x2ff4	0.12427
215	0x2985	0.04312
216	0xac47	-0.06683
217	0x3001	0.1251
218	0x3319	0.2218
219	0x2f41	0.11334
220	0x2d83	0.0861
221	0xaa02	-0.04694
222	0x2c6d	0.06915
223	0x2d91	0.087
224	0x3026	0.1296
225	0xa425	-0.01619
226	0xacf4	-0.0774
227	0x2652	0.02469
228	0xa75a	-0.02872
229	0xb21d	-0.191
230	0x318c	0.1733
231	0x2c09	0.06305
232	0x27d5	0.0306
233	0x3013	0.1273
234	0x28e6	0.03827
235	0xad1b	-0.0798
236	0xa890	-0.03564
237	0x309f	0.1444
238	0xaf61	-0.1153
239	0x2dfd	0.09357
240	0xb2ab	-0.2084
241	0xb029	-0.13
242	0x1f6c	0.007248
243	0xa9e8	-0.04614
244	0x31e0	0.1836
245	0x2769	0.02895
246	0xaff5	-0.1243
247	0xaa40	-0.04883
248	0x2728	0.02795
249	0xaeff	-0.1093
250	0x2c5a	0.068
251	0x3182	0.1721
252	0xb050	-0.1348
253	0x200d	0.00791
254	0xaad4	-0.05334
255	0x2db3	0.08905

while/MatMul3 f2 [128, 64]
0	0xa1ee	-0.01158
1	0x2907	0.03928
2	0x28f8	0.03882
3	0xab91	-0.0591
4	0x2ae2	0.05377
5	0x2d37	0.0815
6	0xac8d	-0.0711
7	0xb1b4	-0.1782
8	0x2c80	0.0703
9	0x2fed	0.12384
10	0x30b2	0.1467
11	0xac89	-0.07086
12	0x3095	0.1432
13	0xa632	-0.0242
14	0xa843	-0.0333
15	0x2781	0.02931
16	0x2968	0.04224
17	0x20f3	0.00967
18	0xaf6c	-0.11597
19	0xab66	-0.0578
20	0x252c	0.0202
21	0xaa0e	-0.0473
22	0xadcd	-0.09064
23	0xb0ed	-0.1539
24	0xafd2	-0.1222
25	0xae02	-0.0939
26	0x2eb3	0.1047
27	0x3088	0.1416
28	0x2db0	0.08887
29	0xb1c3	-0.18
30	0x2c87	0.07074
31	0x245d	0.01704
32	0xa823	-0.03232
33	0x31f9	0.1866
34	0x287f	0.03513
35	0xaee5	-0.1077
36	0x2e6b	0.1003
37	0x3155	0.1666
38	0x2f3c	0.11304
39	0x20e9	0.00959
40	0x2d3e	0.0819
41	0xae34	-0.0969
42	0x3104	0.1567
43	0xa938	-0.04077
44	0x2b23	0.05576
45	0xb0a0	-0.1445
46	0x2f59	0.1148
47	0x265e	0.02487
48	0xadc3	-0.09
49	0x2f6b	0.1159
50	0xb07c	-0.1401
51	0x314e	0.1658
52	0xaccc	-0.07495
53	0xafca	-0.1217
54	0xb114	-0.1587
55	0x2b1f	0.05563
56	0x2efe	0.10925
57	0xb21a	-0.1907
58	0xa8c1	-0.03714
59	0x2b7d	0.0585
60	0xb331	-0.2247
61	0x2c31	0.0655
62	0xaca5	-0.0726
63	0xa59e	-0.02194
64	0x1a48	0.003067
65	0xa40a	-0.01578
66	0xb419	-0.256
67	0xb2f4	-0.2173
68	0xaab1	-0.05228
69	0x25ec	0.02313
70	0xa447	-0.01671
71	0xb402	-0.2505
72	0x9f1b	-0.00694
73	0xb224	-0.1919
74	0x2d51	0.08307
75	0x234e	0.01427
76	0x298d	0.04337
77	0xac89	-0.07086
78	0x9f10	-0.006897
79	0x2995	0.0436
80	0xaa15	-0.04752
81	0xb18e	-0.1736
82	0xb401	-0.2502
83	0xac9f	-0.0722
84	0xa37e	-0.01463
85	0x9b78	-0.003647
86	0xad4b	-0.0827
87	0x2fcc	0.1218
88	0x30d5	0.151
89	0xaedf	-0.10736
90	0x2f8a	0.1178
91	0xaeac	-0.10425
92	0xaf79	-0.11676
93	0xb16f	-0.1698
94	0x2de0	0.0918
95	0xb231	-0.1935
96	0x2e7d	0.1014
97	0xa56b	-0.02116
98	0xaafa	-0.0545
99	0xadfa	-0.0934
100	0x2890	0.03564
101	0x25ef	0.02318
102	0x3081	0.1407
103	0xa2e3	-0.01345
104	0x308c	0.1421
105	0x22a9	0.01301
106	0x9d9c	-0.005478
107	0xa554	-0.02081
108	0xb266	-0.2
109	0x25ae	0.02219
110	0x2d76	0.0853
111	0x2ce9	0.0767
112	0xae2e	-0.09656
113	0x2c29	0.065
114	0xb2c9	-0.212
115	0x1565	0.001317
116	0xaaea	-0.05402
117	0x3266	0.2
118	0x31e5	0.1842
119	0xb33a	-0.2258
120	0xa64d	-0.02461
121	0x325e	0.199
122	0x9807	-0.001966
123	0xb0fe	-0.156
124	0x195e	0.00262
125	0xafc1	-0.12115
126	0x2c6b	0.06903
127	0x2e26	0.09607
128	0x302c	0.1304
129	0xa9ad	-0.04434
130	0x3120	0.1602
131	0x2e70	0.1006
132	0xad50	-0.083
133	0xb1ff	-0.1874
134	0xae7f	-0.1015
135	0xa938	-0.04077
136	0xa5d7	-0.02281
137	0xad0b	-0.0788
138	0xa960	-0.042
139	0x2bbf	0.06052
140	0x2dbe	0.0897
141	0xa95f	-0.04196
142	0xaff1	-0.1241
143	0xac04	-0.06274
144	0x2ccf	0.07513
145	0xac0b	-0.0632
146	0x2db3	0.08905
147	0x2d3d	0.08185
148	0x2bc1	0.06058
149	0x3044	0.1333
150	0x313f	0.164
151	0x9d03	-0.004894
152	0x317e	0.1716
153	0xb110	-0.1582
154	0xac7c	-0.07007
155	0x313d	0.1637
156	0x2e2c	0.09644
157	0xa255	-0.01237
158	0x24f2	0.01932
159	0x24b4	0.01837
160	0x9a51	-0.003084
161	0xa47d	-0.01753
162	0xb08e	-0.1423
163	0x29c4	0.04504
164	0xaac6	-0.05292
165	0xa634	-0.02423
166	0x2fa2	0.11926
167	0xae13	-0.0949
168	0xaba0	-0.05957
169	0xaab9	-0.05252
170	0x9890	-0.002228
171	0x8f5b	-0.000449
172	0xb124	-0.1606
173	0x2630	0.02417
174	0x2c42	0.0665
175	0xacae	-0.0731
176	0xa54c	-0.02069
177	0x99c1	-0.00281
178	0x3151	0.1661
179	0x2d9a	0.0875
180	0xb00c	-0.1265
181	0xaeae	-0.1044
182	0xa93c	-0.0409
183	0x9b1a	-0.003468
184	0xb12d	-0.1617
185	0x29dc	0.04578
186	0x3001	0.1251
187	0xb131	-0.1622
188	0xb020	-0.1289
189	0x3009	0.1261
190	0xab19	-0.05545
191	0x2c60	0.06836
192	0x22ce	0.01329
193	0x3062	0.137
194	0x27af	0.03001
195	0x9eab	-0.00651
196	0xad4b	-0.0827
197	0x3126	0.1609
198	0xb1b5	-0.1783
199	0xadfb	-0.09344
200	0xad7f	-0.0859
201	0x2c1a	0.0641
202	0x3083	0.141
203	0x2932	0.0406
204	0x2ec2	0.1056
205	0xb1e1	-0.1837
206	0x9c60	-0.004272
207	0xafe9	-0.1236
208	0xaa41	-0.04886
209	0xae27	-0.0961
210	0x30f2	0.1545
211	0x2fa3	0.1193
212	0x30c5	0.149
213	0x2ee2	0.10754
214	0x251b	0.01994
215	0xae7b	-0.10126
216	0x2c52	0.0675
217	0x313c	0.1636
218	0x2eeb	0.1081
219	0x3218	0.1904
220	0xb10e	-0.158
221	0xa601	-0.02345
222	0x2f62	0.11536
223	0x26b5	0.0262
224	0x2df8	0.09326
225	0x2c95	0.0716
226	0x1803	0.001959
227	0x2838	0.03296
228	0xa4ea	-0.0192
229	0xa8d6	-0.03778
230	0x2c7f	0.07025
231	0xadb4	-0.0891
232	0xb095	-0.1432
233	0x232d	0.014015
234	0x2916	0.03973
235	0x2820	0.03223
236	0x98bf	-0.002317
237	0x31e6	0.1843
238	0x2faa	0.11975
239	0x2999	0.04373
240	0x2ec1	0.1055
241	0x31b2	0.178
242	0xad03	-0.0783
243	0x2dfe	0.0936
244	0xb24d	-0.1969
245	0xaa2c	-0.04822
246	0xa429	-0.01625
247	0xac25	-0.06476
248	0x1c17	0.003994
249	0x2e81	0.1016
250	0xb01b	-0.1283
251	0x2d02	0.07825
252	0xa96c	-0.04236
253	0x310a	0.1575
254	0x300e	0.1267
255	0x3150	0.166
